Assets/BNM005-without-neutral.onnx (onnx, 7638 bytes, 4 tensors)

input.weight f4 [40, 40]
00000000: b9b4 f1bd ea8e c63d 0e59 2fbe bae4 b5bd
00000010: 9eb3 073e 76de d9bc 5292 5cbd 3c52 20be
00000020: 33b7 1cbe 156a debd 4a7e 13be d991 7ebd
00000030: 842e bfbc a99b 8cbd 8484 6c3b 690c 093e
00000040: 2715 edbd cf1a fe3d c9c9 093e 4ae6 6cbd
00000050: eafe 47bd bb0e 2c3d a9c2 373d e12a e5bd
00000060: 00f5 9e3d 65f5 c0bb bd50 b13d bc5c ce3c
00000070: 0a92 3a3c da77 27be 7193 25be b27c 51bc
00000080: 761d e7bd 32ec 903d a7ec 143e da0c 4b3d
00000090: 8ca7 db3d 59d6 c8bd 2bc0 10be ae5f ddbd
000000a0: 147e b63d d57d 6a3d 1aef 32be e15a 93be
000000b0: f546 b93d ef59 14bd b7a2 353e d204 e2bd
000000c0: 5ac1 35bc a9f0 15bd f2a6 f8bd e3a8 c1bd
000000d0: 2f35 79bc 731e 8f3d b050 d83d 385c 9bbd
000000e0: bbd7 38be 80e5 3bbe f099 54bd 775b 033b
000000f0: 2fb6 e63d 5f37 13be a26c 39bd 9e08 d13c
00000100: ca27 a8bd f6b1 0dbe 8e53 023d db1a 253c
00000110: 5d3d 29be 4a3a 47bc c2f8 d2bc dfcf f13d
00000120: cffe c03d ee10 59be 4c83 913d c1af b8bd
00000130: 815d d23d 4c55 403d e921 003d c6c7 2a3e
00000140: bb30 8a3e cca9 eabd 5d52 e83c a075 59bb
00000150: d9f4 293e 3945 1dbe 3976 793d 4190 04be
00000160: 4bba cabc d41c 443c e6c8 0cbe db4f 2a3b
00000170: 4558 0fbe 5bcf 94bd c85c acbd 46ae 53bd
00000180: 2ae3 203d 4d49 16be baab 943d 2668 3a3d
00000190: f4d6 033d 26e3 f0bd ac9d c03d cbd0 35bd
000001a0: 5f15 2bbe 59e2 0bba a6cb 2bbe 9fb8 b9bd
000001b0: ccdd 6a3d bdde 443c 67f8 64bb 878f 943b
000001c0: 13dd 893d d383 f53d 1148 d3bd 7436 c53d
000001d0: 5fe4 48be f542 21bd f9e6 0a3e 9fea 22be
000001e0: 0f99 4c3d a100 03be 3c3f d23d 9a35 d4bd
000001f0: 10a4 853d 81f9 10be ee24 d7bb 511b 21be
00000200: 7149 6ebd 80a1 ebbd c092 ebbd 8804 88bc
00000210: 4eb8 39bd 98f1 92bd ae32 b23d 7bca f53c
00000220: 3110 503d 3472 06be d250 d5bb 2062 483d
00000230: 8f74 a1bd 72e6 0fbe 2d1b 043d 2f2a c0bc
00000240: e43d 41bc 59c1 9bbd 5cc2 1bbe 47d1 b6bd
00000250: fe73 30bd 5618 da3d 0424 9dbc 763e 723c
00000260: f039 2abe 2912 c13d 8a46 a8bd d5bc ca3c
00000270: fb06 ac3c fa34 8c3d 0948 023e 3afe 6d3c
00000280: 282f debd 213d e8bc dd9d 903d 604c babd
00000290: d3b2 c93b 4edf 0e3e f886 663c 8648 71bd
000002a0: e898 39bd c427 61bb 9f79 e6bd 6ba6 e2bd
000002b0: 6724 4b3c 658b a1bd fc7f 873d 5001 c7bc
000002c0: 86b3 863d 685b 843d 6a98 083e 637b f7bd
000002d0: 24ca ff3c c6d6 323e 1536 d4bd 5a54 a3bc
000002e0: 15fe f5bd 5ff0 c5bb 2849 da3d 0ad2 cabc
000002f0: ff3f 0fbd 7690 ca3d 5228 7f3d 690d b63c
00000300: a3e0 703a 075b 10be 2367 49bc 32b4 d7bd
00000310: e2f9 3bbc 6039 46bc fa16 883e c7b8 403e
00000320: 39af 04be b749 103e 3b2d 873d 78bf f2bd
00000330: 32db 21be 3eea 433e 4c45 863c 56eb 2b3d
00000340: d842 1cbe 7deb e63d a891 3fbe d7f8 ebbd
00000350: a13f 83be f50e 2c3e 6d6d f03d 242d adbd
00000360: fae5 2bbe bc7c 533d 77cf 8bbc 58f1 20be
00000370: 9bb6 f9bd a398 49be 6b27 103e 5431 d3bc
00000380: 4fb0 61be f6f3 06be 7951 eb3d 8d60 35be
00000390: f618 2dbe 149a e2bd dd49 2d3e 3ea6 77bd
000003a0: bb93 c6bd 6d90 a7bd 1741 123e 2ecc 09be
000003b0: b1d9 713c 82cf 13be d6cc e53d 4232 973d
000003c0: 113e 4dbc 7cd9 ea3d 371e 64bd 14a7 f8bd
000003d0: 2d6d 8abd 0534 0abd 89f8 c4bd e601 03be
000003e0: 1f43 2e3d f610 8d3c 1974 b9bd 36dc 01be
000003f0: a1c3 49bd 31ba e4bc 1c1c a13d de35 7b3d
-0.11802048 0.096952274 -0.17123815 -0.08881517 0.13252112 -0.026595335 -0.05385048 -0.1565637
-0.1530426 -0.10860077 -0.14403644 -0.06215081 -0.02333761 -0.06865627 0.0036089728 0.1338364
-0.115763 0.12407457 0.13455881 -0.05783681 -0.04882709 0.042006236 0.044863377 -0.11189819
0.07761574 -0.0058886283 0.08657978 0.025190704 0.0113873575 -0.16354313 -0.16169526 -0.012786077
-0.11284916 0.07076301 0.145434 0.049572803 0.107253164 -0.098065086 -0.14135806 -0.10809265
0.08910766 0.05724891 -0.17474023 -0.28780273 0.09046737 -0.03621858 0.17737852 -0.11036076
-0.011093462 -0.036606465 -0.12141217 -0.09456041 -0.015210434 0.069882296 0.10562265 -0.07585949
-0.18051045 -0.18349266 -0.05190462 0.002004353 0.112652175 -0.14376591 -0.045269616 0.025516804
-0.08210714 -0.13837418 0.031817965 0.010077204 -0.16527314 -0.012159893 -0.025753383 0.118072264
0.09423601 -0.21197864 0.07105121 -0.090178974 0.10271741 0.046956345 0.03128234 0.1667777
0.26990303 -0.114581674 0.028359586 -0.0033181682 0.16597308 -0.15358438 0.06090376 -0.12945653
-0.024747035 0.011969764 -0.13748512 0.002598754 -0.13998516 -0.072661124 -0.08416134 -0.051679872
0.03927914 -0.146764 0.07259317 0.04550948 0.032187417 -0.11762075 0.094050735 -0.044388574
-0.16707371 -0.00053361576 -0.16776904 -0.09068417 0.05734043 0.012015996 -0.0034938098 0.0045337114
0.0673162 0.11988034 -0.1031648 0.09629527 -0.19618367 -0.039370496 0.13564672 -0.15909813
0.049950656 -0.12793209 0.10265967 -0.10361786 0.06525433 -0.14157678 -0.0065656817 -0.15733077
-0.058175508 -0.11505413 -0.115026 -0.016603723 -0.045341782 -0.071749866 0.08701073 0.030003777
0.05079669 -0.13129503 -0.0065098787 0.048921704 -0.0788356 -0.14052752 0.03225248 -0.023457615
-0.011794541 -0.076052375 -0.15210861 -0.08926635 -0.04307937 0.10649173 -0.019182213 0.0147854
-0.16623664 0.09427292 -0.08216579 0.024748245 0.020999422 0.06846042 0.12722792 0.014525944
-0.10848838 -0.028349461 0.0706136 -0.090965986 0.0061553507 0.13952371 0.014070265 -0.058907054
-0.04531184 -0.0034355978 -0.11253666 -0.11066898 0.012398816 -0.078879155 0.06616208 -0.024292618
0.0657721 0.06462747 0.13339391 -0.12084081 0.031224318 0.17464742 -0.10361878 -0.019937683
-0.12011353 -0.0060406174 0.10658485 -0.024758358 -0.03497314 0.09890835 0.06229431 0.022223191
0.0009188747 -0.14097224 -0.012292656 -0.105324164 -0.011473151 -0.01209864 0.2658003 0.18820487
-0.12957467 0.1409062 0.06600424 -0.11852926 -0.15806273 0.19132325 0.016390465 0.04197248
-0.15259874 0.112753846 -0.18707907 -0.11522072 -0.25634483 0.1680258 0.11739621 -0.084558755
-0.16786948 0.051632628 -0.0170667 -0.15717065 -0.12193032 -0.19687133 0.14077537 -0.025780357
-0.22039913 -0.13179001 0.11490149 -0.17712612 -0.16904053 -0.11064544 0.16922708 -0.060461275
-0.09696146 -0.08181844 0.14282642 -0.13456795 0.014761374 -0.14434627 0.1122071 0.07382633
-0.012527005 0.11467263 -0.055692878 -0.121412426 -0.06759105 -0.033741016 -0.09617717 -0.12793693
0.04254448 0.017220002 -0.09055347 -0.1268166 -0.049258832 -0.027920814 0.078666896 0.06133067

input.bias f4 [40]
00000000: 3995 9e3d 2ef0 1fbe 69f6 3fbe bdce 9d3d
00000010: c369 9b3d 058d 09be a90e 1b3e cf0d 863d
00000020: dfd0 8c3c 9231 ac3d 01a2 a1bd 7a93 203e
00000030: 0d7c 6fbd c35a a8bd 41aa e83d 4ffd 05bd
00000040: 418f 393e e2ca 9d3c 296e e4bd a28a 0abe
00000050: 53a0 ebbd 09aa 063d 8a9a 92bc 73fc 053e
00000060: f424 143c c781 5bbc 9942 74bd 5618 f93c
00000070: 78c4 953d 43f2 9c3c 28fa d63d 31f9 20be
00000080: ea5d 153d f15a d7bd c492 06be ca36 3cbd
00000090: 455c 8c3c b9ae 203e b58f ab3d 486d 02be
0.07743306 -0.15618965 -0.18746342 0.07705448 0.07588532 -0.13432701 0.15142311 0.065456025
0.017189441 0.08407892 -0.07892228 0.15681258 -0.058467913 -0.082204364 0.11360598 -0.032712277
0.18121053 0.019261781 -0.11153824 -0.13529447 -0.11505189 0.032877002 -0.017895956 0.13084583
0.009042013 -0.013397641 -0.059633825 0.030407112 0.07312864 0.019158488 0.10496932 -0.15720059
0.036466517 -0.105153926 -0.13141924 -0.04595069 0.017133841 0.15691651 0.08377019 -0.12737

output.weight f4 [3, 40]
00000000: 0cce bb3b 0aad 683d 8b98 57bc ebfd c83d
00000010: 6cd6 53bc 5e38 fa3d b540 b5bc 2c59 1c3c
00000020: 3ece a7bd 622e 15bd 6cb1 1c3d b98c 1fbe
00000030: d36f 123e 299b 293c b853 c7bd a163 25bd
00000040: 437f 9ebd 3692 df3c 9848 123e 4d99 a03d
00000050: fcc2 d9bd d55a fdbc bac0 b7bd 975d 10bd
00000060: 4954 88bd 05b8 0a3e d2fe 8ebe cfcf a43d
00000070: 406f 7ebd cdc2 87bd a791 243e 86ef 9bbd
00000080: 0093 0fbe 0c4f dabd 4f3c a9bd 924f 6cbd
00000090: 1800 bcbd c02f e83d cd66 9abd a488 ecbd
000000a0: c43a 853d 98c4 0b3d a6fc 4ebd 0631 b3bc
000000b0: 4ffb c73d 9ae7 a1bd 9153 613d e4bd 4fbd
000000c0: 100d df3c c674 b9bd 26a5 eebb 5ac0 a33d
000000d0: ddcd 063e 08ab 313b 9004 7fbc 2ee6 b93d
000000e0: 7456 bf3d f877 d4bc f29a afbd d271 073c
000000f0: 764f a73d 9693 503d 512c 493d 453f 8cbd
00000100: 5a2a 2bbe 221b 7cbc c9ff a73c 5075 013e
00000110: 469b cdbd 64bb 8e3c 97c4 a03d e8cb 7b3d
00000120: 16b1 973c 576a df3d 3b88 93bd 4888 0e3d
00000130: 7a53 4cbe 73a8 2a3e 8a15 a73d 7289 623e
00000140: 638c f43c b383 ad3b be44 3f3d 076e c73c
00000150: 6fb2 cc3d 1050 cdbc 5a14 c93d 939b 1abd
00000160: 8828 fdbb a1b9 8dbc 3fa3 2e3e 220e d83d
00000170: 9c89 e6bd 2a28 983d d751 cdbc d5e0 51bd
00000180: ab8f 233c b268 03be 7b18 b5bc 7c11 9b3d
00000190: 19ac 683c a9bf 05be 00b5 1ebe a9b9 bdbd
000001a0: 36d7 5ebe 9933 be3d d6a6 393e 0c1e 283d
000001b0: 793e 16bd 2acc b63d 9d41 983c e517 79bd
000001c0: d035 353e 8a67 003d 137a 8c3d 1980 983e
000001d0: e852 cc3d 3887 213d a55d 15bc 37bc 783d
0.00573135 0.056805648 -0.013158928 0.09814056 -0.01292954 0.122177824 -0.022125581 0.009542745
-0.081936345 -0.036421187 0.03825514 -0.15581025 0.1430047 0.0103519345 -0.09732765 -0.040378217
-0.07739117 0.027291398 0.14285505 0.0784174 -0.106328934 -0.030927101 -0.089723065 -0.035245504
-0.06656701 0.1354676 -0.27928787 0.08047449 -0.062117815 -0.06628952 0.16071187 -0.07614045
-0.1402092 -0.10659608 -0.08263456 -0.05769307 -0.091797054 0.113372326 -0.07539139 -0.115495
0.06505349 0.034123033 -0.050533913 -0.021873962 0.0976473 -0.079055026 0.055011336 -0.050718203
0.027227908 -0.09055476 -0.007282871 0.079956725 0.13164468 0.002711 -0.015565053 0.090771064
0.093426615 -0.025936112 -0.08574475 0.008266883 0.08169453 0.050922 0.04911453 -0.06848005
-0.16715375 -0.015387328 0.02050771 0.12642407 -0.10039382 0.01742334 0.078499965 0.061473757
0.018517058 0.109089546 -0.07203718 0.034797937 -0.19953719 0.16665821 0.08158405 0.22122744
0.029852098 0.005295241 0.046696417 0.024344457 0.09994971 -0.02506259 0.09818335 -0.037746023
-0.007725779 -0.017300429 0.17054461 0.105495706 -0.11256716 0.07429536 -0.025063438 -0.051239807
0.009982984 -0.12832907 -0.0221064 0.07571694 0.0142011875 -0.13061394 -0.15498734 -0.092639275
-0.21761784 0.09287185 0.18130049 0.04104428 -0.036680672 0.0892566 0.018585974 -0.060813803
0.17696309 0.031348743 0.06859221 0.2978523 0.099767506 0.039435595 -0.009116565 0.06072637

output.bias f4 [3]
00000000: 6268 0e3d ee3f 023e cb90 46be
0.034767516 0.127197 -0.19391172
