Assets/BNM003.onnx (onnx, 14625 bytes, 6 tensors)

input.weight f4 [40, 40]
00000000: a574 e5bd 7015 8abc dae0 b93d 8d2d af3e
00000010: 507c 49bc c180 0b3e 8792 a63d 282f 863d
00000020: 9f8e 43be 7900 883d 26fc c13c cd25 c23d
00000030: 418c 33bd 8d84 473e f0a2 933d 8c44 0fbd
00000040: 61cc f7bd d604 cf3d 1514 083e b45d 26be
00000050: bfa3 debd e14e 31be de33 65bd da82 b63b
00000060: 049c cfbd aada b73d 00fc 3f3e 3e74 af3b
00000070: cb38 213d be78 033e 82f5 d9bd 2a53 30be
00000080: 6986 0bbe d5d2 583e 3582 07be 8857 56be
00000090: d006 b7bd 33df 35be ce16 8ebe 9dff cbbe
000000a0: d843 c83d 27db d5bd acb7 46bd 5d04 4c3c
000000b0: ecad 22bd b475 0dbd 9dde 1cbe 84da 283d
000000c0: e83b f43d 9f68 b33d 5d6a 26be fb84 26be
000000d0: 1444 bdbd 2089 0fbe de17 04be 5aec b7bd
000000e0: 1168 1fbe 9344 6d3d 3f4a 42be e413 b4bd
000000f0: ca3a 873d 3523 43be a1e2 0abd 8996 d2ba
00000100: 66e7 1abd e86a 9e3d 7c86 163d ba90 30bc
00000110: df68 283d 0683 3bbe 12ae 9bbd a0d2 09be
00000120: eb22 a6bd f649 afbd 851c 59be 0827 62be
00000130: 73ca 6a3d 49b7 4f3d 4946 e3bd cb34 8ebc
00000140: 0db9 86bd e65e 19be 0c77 35bd 1591 4d3b
00000150: 9a5e d0bd c050 d3bc 8dfc 20bd b303 09be
00000160: 0078 0dbe 3677 06be 1829 9abd af7e 16be
00000170: 5b00 58bd fe01 a2bd 12c2 eebd 9066 a03b
00000180: 60b4 27be 39b3 0cbe b2e7 39bd adc9 d8bc
00000190: af25 143d 4f83 96bc b3b5 88bb 5850 3d3d
000001a0: 9080 59bd 5ef1 aebb 729e 5bbd 3fbc 02bd
000001b0: 54bc acbc a890 6ebd f50c adbc 7300 173e
000001c0: 1333 c73c 4e32 afbd c083 27bd 36d4 9e3d
000001d0: fa52 96bd 7d6c 163e 54fb ce3d f354 3c3e
000001e0: 4493 c5bd ef37 bc3d e84f ffbd 7ffc bcbd
000001f0: 76be 07bd 8c03 3ebe ae7e 8cbd e845 50be
00000200: abf2 eebd a17d ee3d 85f4 49be 9fab f6bd
00000210: 7477 23be 4d53 063d cac1 9c3d 5e64 0dbe
00000220: cdc9 9abe b86f be3d 1088 edbc c3ae 54be
00000230: f75f 07be 3386 9ebd b58b 033e b3a2 59bd
00000240: a3d5 41be d362 1f3d 45d6 edbd 9732 92bd
00000250: 5b2c fcbd 0d59 1dbe 237d 013e a866 3d3d
00000260: 240c 84be 4467 6fbd d7a1 443c 17c7 fabd
00000270: 6140 03be ab0d 1ebe e0f7 533e c539 bcbd
00000280: 3f26 a9bd 2e60 933d 4fff 29be 3adb 45be
00000290: 4b86 d5bd 3521 30bd 4d37 833c e7e7 f0bc
000002a0: 6609 37be b346 333d e6e9 86bd b93e 3ebe
000002b0: 022a 94bd 63fa 21bd 74b2 e7bd 6296 4bbe
000002c0: d210 41be 3b9d 10be 0733 05be 9dc9 3fbe
000002d0: 1eb3 373d b204 93bd b09e b9bd 2f6f 5c3d
000002e0: 14ac 36be 78af db3c fe85 563d 1370 09bb
000002f0: 8c0c 243d 7831 093d 74f5 bcbd 6a71 973d
00000300: efa9 0a39 4b04 0ebe 1424 813d acdf a2bd
00000310: 9137 cd3b 6c75 183d f300 253d 9174 a63d
00000320: 5d86 a7bd 7bc2 f2bd 10f9 f4bc 0a18 693d
00000330: f493 18bc f663 69bd 8d80 dabc 5fd8 98bd
00000340: ebcf 6f3c 4aef 19be b813 303e 09ff b33d
00000350: 1716 a03d 698f 0cbe f4ae 15bc b974 c93d
00000360: 52ae 84bc bd2b 95be a043 243b c58c aabc
00000370: 2ad9 80bc 4804 24bd 6fa2 57be fa19 4ebd
00000380: c34f 1b3e 2e8c 21be 1d21 b0bc f9ec 1cbe
00000390: cd8e 493c e738 20bd 6245 4abe d85f 15be
000003a0: 2652 383d 23fc 59be b7dc e8bc 9ba9 56bd
000003b0: ecd8 2b3e 9edb b7bc 9bfd 5abe cb6f 04be
000003c0: b043 95bd 33e1 dc3d 30c9 c0bc 8fc8 6cbe
000003d0: e13f 51be 8249 debc e66c e0bd fa1a 89bc
000003e0: 1d3d 5cbe b68a 3a3d a33c 53be 260c 2bbe
000003f0: bab6 34be 2a94 45bd 96ef 013e 0a8c 123d
-0.11203889 -0.016855925 0.0907609 0.3421444 -0.012297705 0.13623334 0.081334166 0.06551963
-0.19097374 0.06640715 0.023679804 0.09479866 -0.04383493 0.19484158 0.07208812 -0.03497748
-0.12099529 0.10108344 0.1328891 -0.16246682 -0.10871076 -0.17315246 -0.055957668 0.005569798
-0.101371795 0.08977254 0.18748474 0.0053544333 0.039360803 0.12839028 -0.1064253 -0.17219225
-0.13625492 0.21174176 -0.13233264 -0.20931828 -0.08936846 -0.17760925 -0.27751774 -0.39843455
0.09778565 -0.104421906 -0.048515007 0.012452212 -0.039716646 -0.03453608 -0.15319295 0.041224018
0.11925489 0.08760189 -0.16251512 -0.16261666 -0.092415005 -0.14017153 -0.1289973 -0.08980627
-0.15567042 0.057926726 -0.18973635 -0.08792856 0.0660301 -0.19056399 -0.033907536 -0.0016066591
-0.037818335 0.077352345 0.036749348 -0.010776693 0.041115638 -0.183117 -0.07601561 -0.13459253
-0.08112129 -0.08559029 -0.21202286 -0.22085202 0.057321977 0.050711904 -0.1109739 -0.017359158
-0.065782644 -0.14977607 -0.044302985 0.0031366993 -0.10174294 -0.02579534 -0.03930335 -0.13380317
-0.13815308 -0.13131413 -0.07527369 -0.14696763 -0.052734714 -0.07910536 -0.1165811 0.004895039
-0.16377401 -0.13740243 -0.045386977 -0.026463354 0.03616875 -0.01837316 -0.004172051 0.0462192
-0.053101122 -0.005338832 -0.053617902 -0.031917807 -0.021085896 -0.058243424 -0.021124342 0.14746265
0.024316346 -0.08554517 -0.04089713 0.0775532 -0.07340045 0.14689822 0.10106531 0.1839178
-0.09647229 0.09190356 -0.12466413 -0.09227847 -0.033140622 -0.1855604 -0.068601 -0.20339167
-0.11667379 0.116450556 -0.19722183 -0.12044453 -0.15963537 0.032794286 0.0765415 -0.13807818
-0.30232087 0.092986524 -0.028995544 -0.20769791 -0.13220201 -0.0774044 0.12846263 -0.053133678
-0.18929152 0.038912605 -0.11613134 -0.071385555 -0.12313148 -0.15366001 0.12645392 0.04624048
-0.25790513 -0.05844809 0.012001476 -0.122450046 -0.12817527 -0.15434901 0.20700026 -0.09190706
-0.08259248 0.07196079 -0.16601299 -0.1932191 -0.10426005 -0.04300042 0.01601758 -0.029407455
-0.17874679 0.043768596 -0.06587581 -0.18578614 -0.07234575 -0.039545428 -0.11313334 -0.19881585
-0.18854073 -0.14122479 -0.13007747 -0.18729253 0.044848554 -0.0717863 -0.0906347 0.05381697
-0.1783908 0.026817068 0.05237388 -0.0020971342 0.040051028 0.033494443 -0.09226504 0.07394679
0.00013224011 -0.13868825 0.063057095 -0.07952818 0.0062627275 0.037221357 0.04028411 0.08127702
-0.08179925 -0.118535005 -0.029903919 0.05690769 -0.0093126185 -0.056980096 -0.026672626 -0.074631445
0.014636974 -0.15032688 0.17195022 0.087888785 0.07816713 -0.13726582 -0.00913595 0.09836716
-0.016196404 -0.29134932 0.0025064722 -0.020819077 -0.015728552 -0.040043145 -0.21058057 -0.050317742
0.15167145 -0.1577613 -0.021500165 -0.15324773 0.012302113 -0.039116766 -0.1975303 -0.14587343
0.045000218 -0.21287589 -0.028425558 -0.052407842 0.16781968 -0.022443589 -0.21385805 -0.1293327
-0.07288301 0.10785141 -0.023533434 -0.23123382 -0.20434524 -0.02713466 -0.10958271 -0.016736496
-0.21507688 0.04554244 -0.206286 -0.16703853 -0.1764783 -0.048237003 0.12689051 0.035778083

input.bias f4 [40]
00000000: 42db c03d 2019 8fbd 115b 18be b4c7 1ebe
00000010: 9e82 a0bd 5fe8 533d 229f 08be fcfd 17be
00000020: aced cdbe d7f5 adbd 29e1 83bc 225f 85be
00000030: 55dd 51be 59d7 f8bd 917f 833d eafb 9f3c
00000040: 4f8f af3d 4c91 283d 786c a5bd 3ddc 14be
00000050: a30d ad3d 7411 d8bd a3e1 71bd 6b32 bb3d
00000060: 0f38 93be 2f71 37bf b2ec 52be 5c15 78bd
00000070: 4835 fcbd 36a0 37be 7a98 2abe 7aed ab3d
00000080: 770d a73d 8b38 453d 5668 21be 8f55 dbbd
00000090: 2d78 1cbe fe64 b73c c571 823c 180c 31bd
0.0941682 -0.06987214 -0.14878489 -0.15505868 -0.07837413 0.05173528 -0.13341954 -0.14842981
-0.40220392 -0.08494156 -0.016098576 -0.26049143 -0.20494588 -0.12150449 0.06420816 0.019529302
0.08572256 0.04115419 -0.080773294 -0.14537139 0.084498666 -0.10550204 -0.059053075 0.09140476
-0.28753707 -0.7165708 -0.20598105 -0.060567245 -0.1231485 -0.1793221 -0.16659728 0.083949044
0.08156865 0.048149627 -0.15762457 -0.107096784 -0.15280218 0.022387024 0.01592339 -0.043224424

hidden.weight f4 [40, 40]
00000000: df9a 243e fc7d 723d 9d8d ce3d f9cc 223e
00000010: 4728 ce3d e876 46bc 608f 66be 02be d83d
00000020: 89f2 cb3d f36c 9dbe 3592 01bd 9d05 d03d
00000030: 3c2b 713d 03ff d33d 54ca e63c 0ee9 a8bc
00000040: be0e 50be c86c f8bd 7c74 693e 2279 09be
00000050: f870 07be 2074 f53d f4a4 ea3c c9ba 20be
00000060: 118f 523d 54d5 3bbe c8e6 a53d 22f1 3e3c
00000070: ef65 aabc ec0e 4bbd a64f 09bb 90de 1b3d
00000080: a9c7 27be 14eb 433e 363d 923d 7d6d fabd
00000090: 138f c0bd fb6f 8c3d d8c5 15be 302e 23be
000000a0: 4287 01bd da76 bebb d2d5 373d 8ed1 e13d
000000b0: d893 093e a1ee 5abc 2f49 ecbd 16a5 253e
000000c0: 4f5d 163e 5efd e03d 31b5 11bd 6069 a2bb
000000d0: cb30 6e3e 93ed d43d 1b7c d4bd d879 0a3e
000000e0: d728 513e 7e6a fd3d d76c 5e3b 8a58 edbd
000000f0: 7d7f e13c 1d65 bc3c ae1d 193e 6f64 dc3d
00000100: 5859 b53d b5ee 72bd 8db6 7fbc abcf ea3c
00000110: e12d 463d 2b03 b03d a733 913c 130b 993c
00000120: 04dc debd 4f95 71bd ba8d cdbd 7ad1 513e
00000130: c4f6 19be 532a 4c3e 10ef a53d b67b fcbd
00000140: d970 1d3e f717 b33d 0f1b bdbd cc2b 83bd
00000150: 0291 e0bd 5e17 a4bd 5fc6 f9bd 30de 7cbe
00000160: f174 ddbb b997 f03b 69c4 9fbd 83a7 36be
00000170: 76b9 d3bd f580 95bc 9772 9dbc 8f5c eebb
00000180: 3a78 883d 2e1d 10be 776f e33d c6d8 69bd
00000190: 22c4 d4bd 1d71 ba3d 42a0 073e 548c 4cbe
000001a0: 933d f83d 78c5 d73d b84c bfbe a778 03bc
000001b0: 05cf f8bd 6954 e4bd f8cc a6ba 6a4a 78bd
000001c0: 0499 b6be 1395 35bd 5344 dcbd 278c 12bd
000001d0: 781b 013d fa2b fa3c bc13 fb3d e2c7 98be
000001e0: bac6 14bd ecdb 9e3d 727f 5bbc d30f 093e
000001f0: a2d7 30be f5bb 0a3d f727 f3bd 1a53 b6bc
00000200: 5596 efbd 9179 33be cef6 a2bd 5be1 963e
00000210: 4ba3 a6be 8663 adbe b8d8 a6be 1a42 45bd
00000220: 5d6b d1bc 8a27 9ebc 7089 1ebe 2729 a0bd
00000230: cfe1 a13d 9681 f33d 9967 a0bb e521 c2bd
00000240: 6f3e c8bd 00fb 4bbd 1351 6ebe c128 593b
00000250: 4fda ccbb 5d11 a1bd 1779 403d 5ae2 613c
00000260: 81b0 9bbd f770 e0bd 207a 25be 3c59 5ebe
00000270: 915e 01be 374c 2cbe 0b27 a9bd 9de3 393e
00000280: 1f76 ac3d 79e9 37bc bfa7 15bd c4b9 27be
00000290: ce9a 32be fabc f6bd e141 4dbe e32f 17be
000002a0: 4428 8d3d fb2f 2abe e875 0f3e 761d 05be
000002b0: f0e3 b63d 1ab0 2ebe 905d 01be bb4c bfbc
000002c0: aa0d d9bd b533 da3d ee52 aabc 8791 203e
000002d0: 24c7 56bd ea6d 6a3c f72e 16be 0143 033e
000002e0: c204 083d 7b2d 07bd c88b 053e 5e8a b93d
000002f0: b762 053d 2bef 333e 3b70 53be db4b f23b
00000300: a6d0 0a3d b386 8cbd e1d4 8cbb dcde 6a3d
00000310: 76d7 16be eb1c 18be 38d7 353d d155 04be
00000320: 4b86 2dbe fa56 7cbc 10bc 17be 982d 523e
00000330: ba18 163d 05a0 8b3a e096 d43d 4367 983d
00000340: d757 a43d 36db 1bbd d6fe cbbc f85c 9bbd
00000350: 2531 8f3e fc6a d2bd 0d30 b33c da01 9bbd
00000360: d8ce 3f3d 15e2 99bd 5ea8 59be 5a11 33bd
00000370: 1482 a93d c724 03be 769b d03c 2464 12be
00000380: 660b 35be 69e8 3ebd 992f 7cbd 4f8d f0bd
00000390: b3aa 973d a6c4 c93d d9ce cf3d 4fd0 a2bc
000003a0: 6ef7 263d af9b 4ebe 7f6e a53d 3eb0 27be
000003b0: 2478 9bbc 62e3 8bbd 838c 0f3c 813b 5ebe
000003c0: 3b2a d9bc ddcf 20be 72b5 d2bc af3d 013e
000003d0: d398 f33d f887 a0bd 6728 b73c c1ce bfbd
000003e0: 84f4 963d 04f5 133d 30f6 de3d 0980 84bd
000003f0: 71ca 75be b5f7 a3bc bb82 ab3d ba8f 08be
0.16074704 0.05920218 0.10085604 0.15898503 0.10066276 -0.01211331 -0.2251563 0.10583116
0.09958369 -0.30747184 -0.031633575 0.10157321 0.058879122 0.10351374 0.02817265 -0.020618942
-0.20318124 -0.121301234 0.22798342 -0.13425115 -0.13226688 0.1198504 0.028643109 -0.15696253
0.05140597 -0.18343097 0.08100659 0.01165417 -0.020800559 -0.049574777 -0.0020952015 0.03805405
-0.16384758 0.19132644 0.07140581 -0.122279145 -0.09402289 0.06857296 -0.14626253 -0.15935588
-0.031623133 -0.005812508 0.04488165 0.110262975 0.13435304 -0.013362558 -0.11537396 0.16176257
0.14684032 0.10985826 -0.03557319 -0.0049564093 0.232608 0.10396876 -0.10375234 0.13523042
0.20425735 0.123738274 0.0033939385 -0.11589153 0.027526611 0.022997433 0.14952728 0.10761344
0.088549316 -0.05930968 -0.015607488 0.028663477 0.048383597 0.08594354 0.017724825 0.018682038
-0.108818084 -0.058980282 -0.10036798 0.20490065 -0.1503554 0.1993802 0.08102238 -0.123282835
0.15375079 0.08744805 -0.09233677 -0.06404838 -0.10965158 -0.080122694 -0.121960394 -0.24694133
-0.0067583253 0.0073423055 -0.07801134 -0.17837338 -0.10338108 -0.018249968 -0.01921968 -0.0072742174
0.066635564 -0.14073631 0.111052446 -0.057091497 -0.10388972 0.09103606 0.13244727 -0.19975406
0.12121119 0.10535711 -0.3736322 -0.008024371 -0.12148861 -0.111489125 -0.001272588 -0.06061784
-0.35663617 -0.04433162 -0.10755219 -0.03577819 0.031520337 0.030538548 0.122596234 -0.29839998
-0.036322333 0.077567905 -0.013397085 0.13384943 -0.17269757 0.033870656 -0.11872857 -0.022256423
-0.116985954 -0.17526843 -0.079572305 0.29468808 -0.32546458 -0.33864993 -0.32587218 -0.048158742
-0.02556389 -0.019305963 -0.15482116 -0.07820349 0.07904398 0.11889951 -0.0048951623 -0.09479121
-0.09777533 -0.04979992 -0.23273115 0.0033135863 -0.0062516103 -0.0786464 0.04699048 0.013786877
-0.07602025 -0.10959046 -0.16159868 -0.21713728 -0.1263373 -0.16825949 -0.082594 0.18153234
0.08420967 -0.011225098 -0.03653693 -0.16379458 -0.17441866 -0.12047763 -0.20044662 -0.14764361
0.06892446 -0.16619866 0.14009821 -0.1299952 0.089301944 -0.17059365 -0.12633348 -0.023352018
-0.10598309 0.106543936 -0.020791497 0.15680514 -0.05243601 0.014308432 -0.14666353 0.12818529
0.033207662 -0.033002358 0.13041604 0.090595946 0.032564845 0.17571704 -0.20648281 0.0073942966
0.03389039 -0.06861629 -0.004297838 0.05734144 -0.1473063 -0.14854781 0.0443947 -0.12923361
-0.1694576 -0.015401596 -0.14817834 0.20525205 0.036644675 0.0010652548 0.103803396 0.074415706
0.080245666 -0.038050853 -0.024901789 -0.07586092 0.27967182 -0.10274312 0.021873498 -0.075687125
0.04682812 -0.07513825 -0.21255633 -0.04371772 0.082767636 -0.12806998 0.025464755 -0.14296013
-0.1768013 -0.046608362 -0.06156883 -0.117457025 0.07405605 0.09851961 0.10146875 -0.01987472
0.04076331 -0.20176576 0.08077716 -0.16375825 -0.018978186 -0.06830479 0.008761528 -0.21702386
-0.026509395 -0.15704294 -0.025721285 0.12621187 0.11894383 -0.07838434 0.022358133 -0.09365607
0.073708564 0.036122337 0.108868 -0.06469733 -0.24003007 -0.020015577 0.08374544 -0.13336077

hidden.bias f4 [40]
00000000: 0801 49be f8be a4be 2a3a a5be 4ca5 ccbe
00000010: d56b cfbe f686 c5be 1018 bebe 2237 c1be
00000020: ed76 18be bf12 f5bd adbb b9be 7418 5ebe
00000030: 91ef 16bf 451b 2cbe b4ce 7cbe d9e5 c0bd
00000040: 9e43 a73c d090 31be c987 b7be 5364 40be
00000050: 61d3 a3be bd05 afbd f9fb e23e 4639 f4be
00000060: 24cd 4d3e b01d 12bf 9e7e d9be 051b cfbe
00000070: 4734 28bd 7454 2bbf 2e41 c0be 5d49 6cbe
00000080: 52e3 77bc b41a 54be cd88 bebe 6c56 e8be
00000090: eb1c c7bd 18e6 aebb d3e7 8e3e 857a c8be
-0.196293 -0.32176948 -0.32270938 -0.39969862 -0.40511957 -0.3857953 -0.37127733 -0.37737375
-0.14889117 -0.11966466 -0.36275998 -0.21689016 -0.589593 -0.16807278 -0.24688226 -0.0941884
0.020417985 -0.17340398 -0.35845783 -0.1878827 -0.31997207 -0.08546016 0.44332865 -0.47699946
0.20097786 -0.5707655 -0.42479414 -0.40450302 -0.04106548 -0.6692574 -0.37549728 -0.23074861
-0.015129881 -0.20713311 -0.37213746 -0.45378435 -0.097223125 -0.005337488 0.27911243 -0.39155975

output.weight f4 [4, 40]
00000000: 8505 44bb 0b03 e63c b401 22bd 4131 b93d
00000010: d21e 953d 1375 0f3d 9455 3f3d 3b1c 56bc
00000020: 8c76 8fbb e40d 48bc 3d77 fe3b cefb 39bb
00000030: 5e95 e33d bd4a a33c 4c69 473c 8c7d e53c
00000040: fb71 b53d c95b 343c 717a 3bbe c625 eb3d
00000050: c4ba a63d 8cca 76be c7cf 5c3e 9be9 083d
00000060: 1bd9 533d a024 0cbe 9677 84bd 5014 55bc
00000070: 9926 92bd 2ed9 443d 0f9d 023e f183 eebd
00000080: def2 563d 7d09 8bbc 4e45 0abc 9ddd a1bc
00000090: bd6b 00be 2de2 50be 11ab 5ebb d34a 253c
000000a0: e5ea f23d 7f43 6cbb f64b eebd 1af0 fc3c
000000b0: b46b 8abb e2c2 db3d 0b48 02bd f516 bcbd
000000c0: 16e8 0d3e 9e29 d43c 3111 a0bd 1cc5 85bd
000000d0: 5000 a838 dfce d23d fedf ccbc e6c7 823e
000000e0: de8e 3fbd 7ce4 a43d 742b 9abe af52 9a3d
000000f0: 953b 453d 2be0 d73d 1bc8 89be 27ee 00be
00000100: 8c3e de3c 6599 91bd 00ba 0bbd 7d91 1dbc
00000110: 3f40 ae3c 404c 223d b894 9bbc e873 09bd
00000120: fd7f 7c3c 6038 0dbd bab9 3fbe 1498 d13d
00000130: 3741 963d 1081 0e3e 3225 95be 8323 8bbd
00000140: ee9f 22bc b293 9bbd 2d3f b93c 5fd4 58bd
00000150: b474 b03d e3df 68bd c517 9a3d a2b5 c0bc
00000160: 2c3f e63d d2c0 10be 8717 443c 8200 d23d
00000170: c63f 253e 2d11 d7bd b55d 8dbd c225 c43d
00000180: 48cf 61be 2197 ce3c 8695 46bd 3701 dc3c
00000190: 7a1f dfbd 9f60 9ebc a845 aebd edec d13d
000001a0: 8b8d 153e b297 083e 4dd4 e0bd e9fe 8bbd
000001b0: c8b2 2dbd a1c0 ddbc d8b5 2d3e b193 523d
000001c0: bf7c 5bbe ce83 c13b e8ab 083e 43c9 9b3c
000001d0: cba6 f43c 8a4d d5bb cbe1 bf3d bd00 d6bd
000001e0: 30c8 91bc 284e bf3d 52a0 a93d 0518 dbbd
000001f0: 8f8e fc3d 507c 1dbb e385 ad3d d012 3a3b
00000200: 0c62 0e3e c2af d33d 622d f5bc 7c2d 5c3d
00000210: de9c 3f3d 2a75 f43d 2e81 863d 24e0 1cbe
00000220: 338a 4abd a185 0ebd 7cd1 593c c389 e8bc
00000230: 0d01 d73c 2f31 693d 21f9 013d 5ee4 5a3d
00000240: 33f8 f1bb a1ea bb3d bd9b cabc 85a3 193b
00000250: aa94 d5bc f9e9 913c c829 453d 2827 b8bc
00000260: 6aac 813c 3db1 b23d 7290 dabb d87d b8bd
00000270: ac6e 1e3d 1179 0c3e 00d0 4a3e 1583 bbbd
-0.0029910516 0.028077623 -0.039552405 0.090425976 0.07281269 0.03502376 0.046712473 -0.013068254
-0.0043781456 -0.012210343 0.007765679 -0.0028378847 0.11112474 0.019933099 0.012171101 0.028013967
0.08859631 0.011008211 -0.18308426 0.11481814 0.081410915 -0.24100703 0.21563636 0.03342591
0.05172072 -0.13685846 -0.06468122 -0.013005331 -0.07136268 0.04805868 0.12755226 -0.116462596
0.05247771 -0.016972298 -0.008439375 -0.019758994 -0.12541099 -0.20398779 -0.0033976475 0.01008864
0.11861209 -0.0036050973 -0.11635582 0.030876208 -0.004224265 0.1073053 -0.031806987 -0.09184066
0.13858065 0.02589875 -0.07815779 -0.06531736 8.0109225e-05 0.10293364 -0.025009152 0.25543135
-0.04676711 0.080513924 -0.30111277 0.07535302 0.048152525 0.105408035 -0.2691048 -0.12590848
0.027129434 -0.07109336 -0.03411293 -0.009617207 0.02127087 0.0396235 -0.018991813 -0.033557802
0.015411374 -0.03447759 -0.18723193 0.10234085 0.073366575 0.13916421 -0.2912994 -0.06793883
-0.0099258255 -0.0759653 0.022613132 -0.052936908 0.08616009 -0.05685414 0.07524065 -0.02352411
0.11242518 -0.14136055 0.0119685 0.10254003 0.16137609 -0.10501323 -0.06902639 0.09577514
-0.22051728 0.025218548 -0.04848244 0.026856048 -0.108946756 -0.019333182 -0.085093796 0.10250268
0.14604776 0.13339117 -0.10977993 -0.0683573 -0.042406827 -0.027069392 0.16963899 0.05141038
-0.21434306 0.005905605 0.13346827 0.019016868 0.02986469 -0.0065094875 0.093692385 -0.104493596
-0.017795652 0.09341079 0.08282532 -0.10697941 0.123318784 -0.0024030395 0.084728025 0.002839256
0.1390459 0.103362575 -0.029928867 0.053754315 0.04678046 0.1193641 0.06567608 -0.15319878
-0.049448203 -0.034795407 0.013294574 -0.028386002 0.026245618 0.05693167 0.03173173 0.053440444
-0.007384324 0.09175611 -0.024732465 0.0023443413 -0.026071865 0.017811762 0.04813555 -0.022479609
0.015829284 0.08725212 -0.0066700513 -0.09008378 0.038679764 0.13718058 0.19805908 -0.09155861

output.bias f4 [4]
00000000: 3f3b 723b 9e05 8e3e 0baf a13d 677a a7be
0.0036961583 0.2773866 0.07894715 -0.32710573
