Assets/BNM004.onnx (onnx, 7802 bytes, 4 tensors)

input.weight f4 [40, 40]
0	0x3e7483c7	0.23878394
1	0xbd9a2e63	-0.07528379
2	0x3b1672cc	0.0022956608
3	0xbd54989b	-0.05190335
4	0x3e081b1d	0.13291593
5	0xbdaf44e3	-0.08558061
6	0xbd0a036b	-0.033694666
7	0xbe06ce0c	-0.13164538
8	0x3e88cd30	0.26719046
9	0xbbb865ab	-0.005627354
10	0xbc3c5383	-0.01149452
11	0x3dde499e	0.10853885
12	0x3db34878	0.08754057
13	0xbd497a04	-0.04918863
14	0xbd90a6bb	-0.07063051
15	0xbd2233bc	-0.03960012
16	0x3e9ccb56	0.30623883
17	0xbb8796c8	-0.0041378476
18	0xbddc4102	-0.10754587
19	0xbc081879	-0.008306616
20	0x3d12d09a	0.03584347
21	0xbdd913da	-0.105994895
22	0xbe31e13c	-0.17371076
23	0xbc899108	-0.01679279
24	0x3d8b2a48	0.06795174
25	0xbd448f4d	-0.047988225
26	0xbe3a33aa	-0.18183771
27	0xbc5e21a0	-0.0135578215
28	0xbd47f5b1	-0.048818294
29	0xbe244525	-0.16042002
30	0xbd9ad33f	-0.07559823
31	0xbd9937b7	-0.0748133
32	0x3d0b6e4a	0.034040727
33	0xbe07a03a	-0.13244715
34	0xbdd9776c	-0.10618481
35	0xbe9393ac	-0.28823602
36	0x3cc5c6da	0.024142671
37	0xbe3653a0	-0.17805338
38	0xbe1436c9	-0.14474024
39	0xbe97ef32	-0.2967468
40	0x3dba7a28	0.09105331
41	0xbe0e112b	-0.13873737
42	0xbd81300e	-0.06307994
43	0xbe32bf94	-0.17455894
44	0xbe1727cf	-0.1476128
45	0x3cf18574	0.02948258
46	0xbddf3a5d	-0.10899804
47	0xbc6c75e4	-0.014432404
48	0x3e26465e	0.1623778
49	0xbe402c37	-0.18766867
50	0xbe3b3af5	-0.18284209
51	0xbd659c23	-0.056057107
52	0x3d4c9a7f	0.049952026
53	0xbc2a2b48	-0.010386296
54	0xbd2a8615	-0.041631777
55	0xbba9991e	-0.0051757237
56	0x3e20527e	0.15656468
57	0xbe7b894b	-0.24564092
58	0xbcde3874	-0.027126528
59	0xbd9291b2	-0.071566954
60	0x3e522915	0.20523484
61	0xbd4e9927	-0.050439026
62	0xbd222eb3	-0.039595317
63	0xbbff78b0	-0.0077963695
64	0x3c93063c	0.017947309
65	0xbdbd7cd3	-0.09252324
66	0xbdb5a7a8	-0.088698685
67	0xbe5d864e	-0.21633264
68	0x3e95c102	0.29248816
69	0xbce88aef	-0.028386561
70	0xbdc63095	-0.09677235
71	0xbd12a52a	-0.035802044
72	0xbe358e76	-0.17730126
73	0xbe0af71c	-0.13570827
74	0xbd9c575f	-0.07633852
75	0xbe1a122c	-0.15045995
76	0x3e9be502	0.30448157
77	0xbdba17ca	-0.09086569
78	0xbc44f754	-0.012021858
79	0x3e104cb8	0.14091766
80	0x3d6a1ff1	0.057159368
81	0xbd5a81d6	-0.053346477
82	0x3d6ebbee	0.058284692
83	0x3ce71e88	0.0282128
84	0xbdbb9104	-0.09158519
85	0xbdc940fe	-0.098268494
86	0xbe24b673	-0.16085224
87	0x3dae0e83	0.08498862
88	0x3e02e867	0.12783967
89	0x3e14fc30	0.14549327
90	0x3e8baa7d	0.2727851
91	0x3de799ce	0.11308633
92	0x3d980dfa	0.07424541
93	0xbdc8a4be	-0.09797047
94	0xbe51b468	-0.20478976
95	0x3eab3078	0.33435416
96	0xbe849f3b	-0.25902733
97	0x3dfd5bd1	0.12371028
98	0xbca55a79	-0.020184742
99	0xbd6fee15	-0.058576662
100	0xbe47c174	-0.1950739
101	0xbe3d6891	-0.1849692
102	0xbe94adb6	-0.2903878
103	0xbca07fbb	-0.019592157
104	0xbe3a5e11	-0.18199946
105	0x3dbf08ed	0.09327874
106	0xbd5a2d77	-0.053266015
107	0xbe40b9a7	-0.18820821
108	0xbe48f820	-0.19625902
109	0xbdcb5a2e	-0.0992931
110	0xbe974095	-0.2954146
111	0x3ba0b603	0.00490451
112	0xbe080358	-0.13282526
113	0x3df94ef4	0.12173262
114	0xbd8e99c5	-0.06962923
115	0xbf02d033	-0.51098937
116	0xbdf7304f	-0.12069761
117	0xbed67b33	-0.4189087
118	0xbedfc12c	-0.43702066
119	0x3ba1d732	0.0049389834
120	0xbda27ff4	-0.07934561
121	0xbd2d9fc2	-0.042388685
122	0x3df932b6	0.121678755
123	0xbcb8191e	-0.022472914
124	0xbdc1c7d9	-0.09461946
125	0x3c93c569	0.018038468
126	0x3c785512	0.015157001
127	0x3de4b5f3	0.111675166
128	0xbd110575	-0.035405595
129	0xbd9e4a0b	-0.07728966
130	0x3db11c1c	0.086479396
131	0xbe19cc14	-0.15019256
132	0xbd844498	-0.06458396
133	0xbde58fb2	-0.11209048
134	0x3cfc46d1	0.030795487
135	0xbc939912	-0.018017326
136	0x3deeb429	0.116554566
137	0xbe18256c	-0.14858025
138	0x3debcb6b	0.11513408
139	0xbe4a540a	-0.19758621
140	0xbd98d11e	-0.07461761
141	0xbdf68192	-0.12036432
142	0x3caaf8b5	0.020870546
143	0xbd9c0ecb	-0.07620009
144	0xbddd752e	-0.10813366
145	0xbe590ca8	-0.21196234
146	0x3e0ffa8e	0.14060423
147	0xbdb9ed27	-0.09078436
148	0x3a115f6d	0.00055455306
149	0xbd959b25	-0.07304982
150	0x3d06b284	0.03288509
151	0xbdbc3c1b	-0.09191152
152	0xbd8ce35b	-0.06879302
153	0xbe015f65	-0.12634046
154	0xbd781121	-0.06056321
155	0xbde51fcd	-0.11187706
156	0x3e1cc21b	0.1530842
157	0xbde97473	-0.11399164
158	0xbe520c7c	-0.20512575
159	0x3cc68f4a	0.024238247
160	0xbdcf815d	-0.10132096
161	0xbe09f54e	-0.13472483
162	0xbd83778b	-0.064192854
163	0x3d7c396a	0.06157819
164	0xbd21dfc9	-0.03952006
165	0xbd977dcd	-0.073970415
166	0x3ce11ca8	0.027479485
167	0xbd7e9af1	-0.062159482
168	0xbde898cd	-0.113572694
169	0xbe27be4c	-0.16381186
170	0x3d2944c7	0.041325357
171	0xbd55b8e9	-0.052178297
172	0xbd919688	-0.0710879
173	0xbe2af2cd	-0.16694184
174	0xbdc07386	-0.09397034
175	0x3d9df949	0.07713563
176	0xbd48526c	-0.04890673
177	0xbccc4f32	-0.024940107
178	0xbd0a8d85	-0.03382637
179	0xbe0346ed	-0.12820025
180	0xbd5fb718	-0.05461797
181	0x3d5a4d00	0.05329609
182	0xbd786570	-0.060643613
183	0xbe17f2e7	-0.14838754
184	0xbcb31dc8	-0.021864787
185	0xbdea4cb4	-0.11440411
186	0xbdb79ccb	-0.08965453
187	0x3d0f49cc	0.034982488
188	0x3dee225e	0.11627649
189	0x3dbf578a	0.093428686
190	0x3d8b8635	0.06812707
191	0xbd9de26c	-0.07709202
192	0xbdbd50ee	-0.09243952
193	0x3c2114b6	0.009831598
194	0xbca2f728	-0.019893244
195	0xbdb77acf	-0.08958971
196	0x3c5bc3dc	0.013413396
197	0x3c4d9f34	0.012550164
198	0xbdac8757	-0.084242515
199	0x3da1a257	0.07892292
200	0x3e1cfddc	0.15331215
201	0xbe3ad22e	-0.1824424
202	0x3c1c0d15	0.009524603
203	0xbd518d60	-0.051160216
204	0xbd09d460	-0.033649802
205	0xbc54fbd0	-0.01299949
206	0xbe707fd2	-0.2348626
207	0xbe0b7bd4	-0.13621455
208	0x3ddd9634	0.108196646
209	0xbe6232ec	-0.22089738
210	0xbc5393b0	-0.012913629
211	0x3dfc58fc	0.1232166
212	0xbd92da6f	-0.07170569
213	0xbddbe922	-0.10737826
214	0xbe18b3db	-0.1491236
215	0x3c265b0d	0.010153544
216	0x3dea5963	0.114428304
217	0x3d1091c4	0.035295263
218	0xbbe43d08	-0.0069652833
219	0xbbcd633a	-0.0062679322
220	0xbe079fa3	-0.1324449
221	0xbdfb0eb6	-0.12258665
222	0xbdd537f3	-0.10411062
223	0xbdd2d902	-0.10295297
224	0xbdf6ab35	-0.12044374
225	0xbda54734	-0.080702215
226	0xbd96ea9f	-0.07368969
227	0x3cf778e8	0.03020902
228	0xbc6d4a18	-0.014482997
229	0xbdf5bb26	-0.11998586
230	0xbd94298d	-0.07234488
231	0xbe23eb3c	-0.16007704
232	0xbc93fba7	-0.018064333
233	0xbd6cac08	-0.05778125
234	0x3a08c642	0.0005217531
235	0x3e302ed1	0.17205359
236	0xbce1b955	-0.027554194
237	0xbd90af77	-0.07064717
238	0xbe04efff	-0.12982176
239	0xbdfadbfd	-0.12248991
240	0xbc8a4a7f	-0.016881226
241	0xbde9b45b	-0.11411353
242	0xbd898dd6	-0.06716506
243	0xbdb236cf	-0.0870186
244	0xbe226d29	-0.15861954
245	0xbd9c0220	-0.07617593
246	0x3da36b7d	0.07979486
247	0xbdb05173	-0.08609285
248	0x3c43c44e	0.011948658
249	0xbe2a0472	-0.16603258
250	0xbd948c33	-0.072533034
251	0x3d9dfd6c	0.07714352
252	0x3d23351e	0.03984558
253	0xbd0723f2	-0.032993264
254	0xbdf7bd2f	-0.12096631
255	0x3d73d6f7	0.05953118

input.bias f4 [40]
0	0xbd9cecb4	-0.07662335
1	0x3e769bcf	0.24082874
2	0x3d69670b	0.056983035
3	0xbd8df351	-0.069311745
4	0x3d84f0a0	0.06491208
5	0x3d81d0d1	0.06338657
6	0xbdf093de	-0.117469534
7	0xbd498f43	-0.04920889
8	0xbe8693c6	-0.26284617
9	0xbe29daf1	-0.16587426
10	0xbe397330	-0.18110347
11	0xbdf2867d	-0.11842058
12	0xbd17e2de	-0.03708159
13	0xbd5862e7	-0.052828696
14	0xbe1caab5	-0.15299495
15	0xbd0665a9	-0.032811794
16	0xbe0d1014	-0.13775665
17	0x3dc7e7eb	0.09761032
18	0x3bd4211e	0.0064736744
19	0xbdd49e31	-0.10381735
20	0xbe39c675	-0.18142112
21	0x3d9738ce	0.073838815
22	0xbed828e8	-0.4221871
23	0xbde5a5de	-0.11213277
24	0x3cb8001a	0.022460986
25	0xbe4b49d2	-0.19852379
26	0xbca8ae4e	-0.020590927
27	0xbdb1ae8a	-0.08675869
28	0xbc8c3a98	-0.017117783
29	0x3e1914aa	0.14949289
30	0x3ee77d5d	0.45212832
31	0x3d837a82	0.06419851
32	0xbe963e7a	-0.2934454
33	0x3dde6a9d	0.108601786
34	0xbe2651da	-0.16242161
35	0xbe296d74	-0.1654566
36	0xbeaf874e	-0.34282917
37	0x3e5eca31	0.21756817
38	0xbdbed2e2	-0.093175665
39	0x3da13011	0.07870496

output.weight f4 [4, 40]
0	0xbe209acf	-0.15684055
1	0x3cd94c78	0.026525721
2	0x3d7a6f2a	0.06114117
3	0xbc0df55e	-0.008664457
4	0x3db5f854	0.088852555
5	0xbdee6ffd	-0.11642454
6	0xbd1a2aca	-0.037638463
7	0xbe0c02d0	-0.13672948
8	0xbdb1b4c3	-0.08677056
9	0xbdc63c06	-0.09679417
10	0xbdce06e8	-0.10059911
11	0x3c99bcaf	0.01876673
12	0xbe7d1da2	-0.24718335
13	0xbdc7920a	-0.097446516
14	0x3d99393e	0.07481621
15	0xbce34808	-0.027744308
16	0xbbae3425	-0.0053162747
17	0x3db7ae9c	0.08968851
18	0xbc324510	-0.010880724
19	0x3e0d5ba8	0.13804495
20	0x3c024785	0.007951622
21	0xbdcb8e4a	-0.09939249
22	0x3bae3923	0.00531687
23	0x3da0df12	0.07855047
24	0xbdc163dc	-0.09442875
25	0xbdcfd1ab	-0.10147413
26	0xbc766c14	-0.015040416
27	0xbce3fbf0	-0.027830094
28	0x3d487494	0.048939303
29	0xbd9530f8	-0.07284731
30	0x3d884e5a	0.066555694
31	0x3dade654	0.08491197
32	0xbe53dc13	-0.2068942
33	0xbca292ba	-0.019845355
34	0x3dd0e219	0.10199375
35	0xbe10588a	-0.14096275
36	0x3e3f906e	0.1870744
37	0x3e32ce2c	0.17461461
38	0x3dfa7d1f	0.12230896
39	0x3d8e0493	0.06934466
40	0xbe230f6a	-0.15923849
41	0xbcfcceb9	-0.030860292
42	0x3e9a6d9e	0.30161756
43	0x3e0235ed	0.12715884
44	0xbd54857d	-0.051885117
45	0x3e35c918	0.17752492
46	0xbdff688f	-0.12471115
47	0x3dc56526	0.09638433
48	0xbda1f592	-0.07908167
49	0xbe90098e	-0.2813229
50	0x3d70572e	0.05867689
51	0x3c4aed43	0.012385669
52	0xbe07033b	-0.13184826
53	0x3d9568dc	0.07295391
54	0xbd86cf85	-0.0658255
55	0xbe187d5b	-0.1489157
56	0x3d40b8d9	0.047051284
57	0xbcc17868	-0.023616984
58	0x3d5b913d	0.053605307
59	0xbdb20412	-0.086921826
60	0xbcf0f659	-0.029414343
61	0xbd51c434	-0.051212505
62	0xbdb9d0af	-0.09073006
63	0xbdc02c05	-0.09383396
64	0xbcf0266c	-0.029315196
65	0xbb8a0ea1	-0.0042131697
66	0x3e3ed29b	0.18635027
67	0xbca23118	-0.0197988
68	0xbd212c95	-0.039349157
69	0xbe4e8361	-0.20167305
70	0x3dfa3284	0.12216666
71	0x3e17accb	0.14812009
72	0x3cfde3a1	0.030992331
73	0xbd206522	-0.039158948
74	0xbd9a901a	-0.075470164
75	0x3ccf7a9a	0.025327016
76	0xbe13483f	-0.14383028
77	0xbd77d973	-0.06051011
78	0xbde1c3dc	-0.11023685
79	0x3be0227b	0.006840048
80	0x3e1eb3de	0.15498301
81	0xbe1aa60e	-0.15102407
82	0xbd84d4dd	-0.06485913
83	0x3c85500d	0.016273523
84	0xbdab0297	-0.08350103
85	0x3e0c0ec7	0.13677512
86	0xbd819bdd	-0.06328557
87	0x3ca425e0	0.020037591
88	0x3b54d29b	0.0032474163
89	0xbb5b0058	-0.0033416953
90	0x3e0de5e4	0.13857228
91	0xbdda0d36	-0.10647051
92	0x3e61a80a	0.22036758
93	0xbcdf04ff	-0.027224062
94	0xbda440a5	-0.080201425
95	0x3e7af68a	0.2450811
96	0xbcf95b92	-0.030439172
97	0xbdb95648	-0.0904966
98	0xbd8808a7	-0.06642275
99	0xbd81cda6	-0.063380525
100	0x3e2b72d4	0.16743022
101	0xbe01404c	-0.12622184
102	0x3db974cb	0.090554796
103	0x3a5bbbc4	0.0008382166
104	0x3e1de2d4	0.1541856
105	0x3d305113	0.04304607
106	0x3d16e8e2	0.036843188
107	0xbbe82a6c	-0.007085135
108	0xbddad33a	-0.106848195
109	0xbde80243	-0.113285564
110	0xbe2c7505	-0.16841514
111	0x3c2130a0	0.009838253
112	0x3e60b5b9	0.21944322
113	0xbd02bc0f	-0.031917628
114	0x3db46f04	0.08810237
115	0x3e92124d	0.28529587
116	0xbdc1397f	-0.09434795
117	0xbd900e8f	-0.07034027
118	0x3cfd64ef	0.030931918
119	0xbd95c915	-0.07313744
120	0x3e29942b	0.16560428
121	0xbda41d6c	-0.08013424
122	0xbea14984	-0.315014
123	0xbd8c3639	-0.0684628
124	0xbd3c5044	-0.045974985
125	0x3cc6f20f	0.024285344
126	0xbbaf09a7	-0.005341727
127	0xbd9de501	-0.07709695
128	0xbd878fa0	-0.06619191
129	0x3e31af9c	0.17352146
130	0x3e327677	0.17428003
131	0x3da1cef0	0.07900798
132	0x3e107610	0.14107537
133	0x3dbb4e50	0.09145796
134	0x3df774a9	0.12082798
135	0x3d855a6e	0.06511389
136	0xbdd71da8	-0.10503703
137	0x3ab1d0d2	0.0013566262
138	0x3d684ef7	0.05671593
139	0x3e40868b	0.18801324
140	0x3d9b0d4d	0.07570896
141	0xbc822107	-0.01588489
142	0x3e064dba	0.13115588
143	0x3d9265a0	0.0714829
144	0xbc6256f0	-0.013814673
145	0xbd7420e6	-0.059601687
146	0xbb6209a2	-0.0034490605
147	0xbdc9a385	-0.09845642
148	0x3c5662b4	0.013085056
149	0x3e31b1c5	0.1735297
150	0xbd201e74	-0.039091542
151	0xbd20e462	-0.039280303
152	0x3df11dc0	0.117732525
153	0xbde871e7	-0.1134985
154	0xbe09bd02	-0.13451007
155	0x3e15930a	0.14606872
156	0xbd943b60	-0.072378874
157	0x3e6d3b53	0.23167162
158	0x3df3a5da	0.11896868
159	0x3d923787	0.07139497

output.bias f4 [4]
0	0xbdd15063	-0.10220411
1	0x3ed1a7b5	0.40948263
2	0xbccfca32	-0.025364969
3	0xbeddeb3f	-0.4334354
