Assets/BNM006.onnx (onnx, 7879 bytes, 4 tensors)

input.weight f4 [40, 40]
0	0x3be368aa	0.006939967
1	0x3e0e312e	0.13885948
2	0xbe028d6d	-0.12749262
3	0x3c480ad3	0.012209612
4	0xbe333980	-0.17502403
5	0xbe0c6724	-0.1371122
6	0x3d5908b6	0.052986823
7	0xbd58792b	-0.05284993
8	0x3e2b4bb8	0.16728103
9	0xbde60c06	-0.11232762
10	0xbdd24a28	-0.102680504
11	0xbdbf39b1	-0.09337176
12	0x3e23d050	0.15997434
13	0xbd42a3fa	-0.04751966
14	0xbe3a06d4	-0.18166667
15	0x3cd6e2d7	0.026231213
16	0x3dd23a0b	0.10264977
17	0x3d0adf5e	0.033904426
18	0xbde44bd5	-0.11147276
19	0xbd2e42c6	-0.04254415
20	0xbccb89a7	-0.024845911
21	0xbd39a635	-0.045324523
22	0xbe200801	-0.15628053
23	0xbe0f1fb3	-0.13976936
24	0xbc38f8ae	-0.011289759
25	0xbde1c13a	-0.11023183
26	0xbbe6980e	-0.0070371693
27	0x3d298ceb	0.041394155
28	0xbe189b93	-0.14903097
29	0xbe655237	-0.22394644
30	0xbe42fd5a	-0.19041958
31	0x3d29a3af	0.041415866
32	0xbe371cc8	-0.17882073
33	0x3db4396c	0.08800015
34	0xbe447a03	-0.19187169
35	0x3d25d70e	0.040488295
36	0x3dcc3c4d	0.09972439
37	0xbe61f9eb	-0.22067992
38	0xbe10d765	-0.14144666
39	0xbe14db60	-0.1453681
40	0x3d7b1609	0.06130031
41	0xbe0dc63b	-0.1384515
42	0x3e026d51	0.12737013
43	0xbd30b775	-0.04314371
44	0x3db77c6f	0.08959281
45	0xbd83cac8	-0.06435162
46	0xbdb8a64f	-0.09016096
47	0xbc7f0159	-0.015564286
48	0xbdb29708	-0.08720213
49	0xbdaf824e	-0.085697755
50	0xbd94a0d1	-0.07257236
51	0xbd5e6500	-0.05429554
52	0xbda05638	-0.07828945
53	0xbd37ec10	-0.04490286
54	0xbe2d0e2f	-0.16899942
55	0x3b21e50e	0.0024703178
56	0xbdba0191	-0.0908233
57	0x3d29ad58	0.04142508
58	0xbd978ab8	-0.073995054
59	0xbd6d53d8	-0.057941288
60	0xbd4a2b0e	-0.049357466
61	0x3e19b90f	0.15012
62	0xbdafdbc8	-0.08586842
63	0x3e1ae90e	0.15127966
64	0x3d4e3c3e	0.05035042
65	0xbdbc4085	-0.091919936
66	0x3d8da6ca	0.06916578
67	0x3d9bfa95	0.07616154
68	0x3d8bf29f	0.06833386
69	0x3cdc4665	0.026889035
70	0xbded4020	-0.115844965
71	0xbda443bf	-0.08020734
72	0x3cba1779	0.02271627
73	0xbd44229c	-0.04788457
74	0xbd8c638c	-0.068549246
75	0x3a8dd4a5	0.0010820819
76	0xbd9f3b59	-0.077749915
77	0x3db30738	0.08741611
78	0xbdbef500	-0.09324074
79	0x3db3252d	0.08747325
80	0xbc9d39d1	-0.019192608
81	0xbe2170e5	-0.15765722
82	0x3ea00257	0.31251785
83	0x3e6099a4	0.21933609
84	0xbdd51450	-0.10404265
85	0x3e195fca	0.14977947
86	0x3d926421	0.07148004
87	0x3e3dfc6e	0.18553326
88	0xbe05579a	-0.13021699
89	0x3e0e87a5	0.13918932
90	0x3e892601	0.26786807
91	0x3e023347	0.12714873
92	0xbe085fb9	-0.13317765
93	0x3ceca9cd	0.028889561
94	0xbc326dc1	-0.010890425
95	0x3d6cbb68	0.057795912
96	0x3e44a8af	0.19204973
97	0xbd4d9639	-0.05019209
98	0x3ec7b25e	0.3900327
99	0x3decfa28	0.11571151
100	0x3d6b6a2d	0.057474304
101	0xbcb0407a	-0.02151512
102	0x3e0d97a4	0.13827378
103	0x3cb726ba	0.022357333
104	0xbd492eb8	-0.04911682
105	0xbdb79637	-0.08964198
106	0x3e7eaa9d	0.24869771
107	0x3cb44e16	0.02200989
108	0xbdcf5651	-0.101238854
109	0xbe27b417	-0.16377293
110	0xbe1d5003	-0.15362553
111	0xbdfb5d0c	-0.12273607
112	0x3cb558ca	0.022137064
113	0xbd6d76d0	-0.057974637
114	0x3bd35839	0.006449726
115	0xbd5f78e9	-0.05455867
116	0xbe2806d1	-0.1640885
117	0xbe6cdc7b	-0.23130982
118	0xbe076e1e	-0.132256
119	0xbe04b642	-0.12960151
120	0xbdefeee8	-0.117154896
121	0xbcf42f1e	-0.029807623
122	0xbd6c0c09	-0.057628665
123	0x3d2e1a57	0.04250559
124	0xbd270d66	-0.040784262
125	0xbdd82d01	-0.10555459
126	0xbc8eb3ab	-0.017419657
127	0xbe014858	-0.12625253
128	0x3d5b6965	0.05356731
129	0xbd376223	-0.044771325
130	0xbe0b8288	-0.13624012
131	0x3db5398d	0.088488676
132	0xbe129628	-0.14315093
133	0xbdc200c5	-0.09472803
134	0xbe30ce17	-0.17266117
135	0xbd509a1d	-0.050928224
136	0x3dd8b253	0.10580888
137	0xbdeb4672	-0.11488046
138	0xbd7f0ee1	-0.06227005
139	0xbda6e2a2	-0.081486955
140	0xbdb6ea45	-0.08931402
141	0xbe372d17	-0.17888294
142	0x3d5fb7b4	0.054618552
143	0xbe3108ed	-0.17288561
144	0xbd9edc3c	-0.0775685
145	0xbe117cbf	-0.14207743
146	0xbd09a839	-0.033607695
147	0xbdff8a0e	-0.12477504
148	0xbde4d5b4	-0.11173573
149	0xbd85e237	-0.06537288
150	0x3d257b19	0.0404006
151	0xbd63056c	-0.055425093
152	0xbd2bf8d1	-0.041985337
153	0xbd80f029	-0.06295807
154	0x3d84aebc	0.064786404
155	0xbe20bfb9	-0.15698136
156	0x3da9a53f	0.08283471
157	0x3bdd9f13	0.006763348
158	0xbdbae7a2	-0.09126212
159	0x3d57e418	0.05270776
160	0x3da450c4	0.08023217
161	0xbdb3f5fe	-0.08787154
162	0x3d5e944d	0.05434065
163	0xbd3b2b30	-0.045695484
164	0x3de03666	0.10947876
165	0xbdeef8ca	-0.116685465
166	0x3dfcbff4	0.123413
167	0xbd76eb71	-0.06028313
168	0x3db44eb2	0.088040724
169	0xbdf2c372	-0.118536845
170	0x3b1554c4	0.002278612
171	0xbe3edcc5	-0.18638904
172	0xbd628315	-0.05530079
173	0xbe377670	-0.17916274
174	0xbe2974f7	-0.16548525
175	0xbe6a2903	-0.22867207
176	0x3e1c99e0	0.15293074
177	0xbe08aad4	-0.13346416
178	0x3e13894e	0.14407846
179	0xbe015445	-0.12629803
180	0x3d36e0b2	0.04464788
181	0xbe181a44	-0.1485377
182	0xbd846909	-0.06465346
183	0xbcebfc24	-0.028806753
184	0x3d0e61fd	0.034761418
185	0xbe682678	-0.22670925
186	0x3e03b176	0.12860665
187	0xbcbb0dd8	-0.02283375
188	0x3c0b58f3	0.008505094
189	0xbcc92668	-0.024554446
190	0xbd22b096	-0.039719187
191	0xbd1995e2	-0.037496455
192	0x3dc5c1bc	0.096560925
193	0xbd069f83	-0.032866966
194	0xbe234d69	-0.15947498
195	0xbe07d782	-0.13265803
196	0xbe190f68	-0.14947283
197	0xbd89eda1	-0.06734777
198	0xbdeeb74a	-0.11656053
199	0xbde094c2	-0.10965873
200	0xbda0b4c4	-0.07846978
201	0x3d9222ec	0.07135567
202	0xbe2134a1	-0.15742733
203	0x3d7e901e	0.06214916
204	0xbe40d301	-0.18830492
205	0xbd22a5d0	-0.039708912
206	0x3e0de795	0.13857873
207	0x3df36ab6	0.11885588
208	0xbe8725dc	-0.26396072
209	0x3d87e0a4	0.06634644
210	0xbda41e04	-0.080135375
211	0xbe6e3213	-0.2326129
212	0xbe7b3d6d	-0.24535151
213	0x3a1eb6ca	0.00060544594
214	0xbd6a844a	-0.057255067
215	0x3e129f7e	0.14318654
216	0xbc333763	-0.010938498
217	0x3e2d3a9f	0.16916893
218	0xbdbea2f4	-0.093084246
219	0xbcfa5401	-0.030557634
220	0xbe45d1c4	-0.193183
221	0xbc3e70db	-0.0116235865
222	0x3e4369db	0.1908335
223	0x3de51853	0.1118628
224	0xbe49d352	-0.19709519
225	0x3c2117be	0.009832321
226	0x3df0c4f1	0.117563136
227	0x3ce496be	0.02790391
228	0xbe1c2430	-0.1524818
229	0xbb698bd5	-0.0035636325
230	0xbbf91bc7	-0.0076021883
231	0x3d769443	0.060199987
232	0xbd9dc3a2	-0.077033296
233	0x3d55830d	0.052126933
234	0xbd9bb05a	-0.07601996
235	0x3d9803cb	0.074225985
236	0xbe00001a	-0.12500039
237	0x3e144cf3	0.14482479
238	0x3cd077d5	0.025447765
239	0x3e1ba2f5	0.15198882
240	0x3dc67b99	0.09691543
241	0xbdf18df1	-0.11794651
242	0xbd3f9305	-0.046771068
243	0x3cfca1b2	0.030838821
244	0xbddc678b	-0.10761937
245	0xbda113bf	-0.078650944
246	0x3df560a5	0.11981324
247	0xbaed6f47	-0.0018114828
248	0xbc392d12	-0.0113022495
249	0x3c60d67d	0.013723013
250	0xbdfd7826	-0.12376432
251	0xbd94df81	-0.072691925
252	0xbe0082f1	-0.1254995
253	0xbdad60e4	-0.08465746
254	0xbdcd409d	-0.1002209
255	0xbda02d16	-0.078210995

input.bias f4 [40]
0	0xbca7778e	-0.02044275
1	0xbc80c87a	-0.015720595
2	0xbea8543b	-0.32876763
3	0xbe38b00a	-0.18035904
4	0xbe7d9d6b	-0.24767081
5	0xbe693346	-0.22773466
6	0xbe07530f	-0.13215278
7	0xbdd43ccf	-0.10363161
8	0xbbeee96e	-0.0072910106
9	0x3da3a7ed	0.07991014
10	0xbd6e00ba	-0.05810616
11	0x3e3685c1	0.1782446
12	0xbe1b84c1	-0.1518736
13	0xbd74519c	-0.05964814
14	0x3bd44e39	0.0064790514
15	0xbe99b94d	-0.30024186
16	0x3d8418ee	0.064500675
17	0xbe6aae61	-0.22918083
18	0xbcbfab4c	-0.02339711
19	0x3da3db15	0.08000771
20	0x3e36c381	0.17848016
21	0x3dac4ad7	0.08412712
22	0x3d3b6abb	0.045756083
23	0x3d371352	0.04469616
24	0xbd74ffb4	-0.05981417
25	0x3df9160a	0.12162407
26	0xbcb1f70c	-0.021724246
27	0x3e525a09	0.20542158
28	0xbe2f9a9b	-0.17148821
29	0x3e8de4a6	0.27713507
30	0x3db416e8	0.087934315
31	0x3e3bb93d	0.18332382
32	0x3cf2c049	0.029632704
33	0x3e501224	0.2031942
34	0xbd89be97	-0.06725805
35	0x3e38e596	0.1805633
36	0xbea66be3	-0.32504186
37	0xbe6e3234	-0.23261338
38	0xbe617ded	-0.22020693
39	0x3c09c80c	0.008409511

output.weight f4 [4, 40]
0	0x3a326c8e	0.0006806337
1	0xbca97973	-0.020687794
2	0x3e4b5e47	0.19860183
3	0x3e0879f7	0.13327776
4	0x3cccd1ab	0.025002321
5	0xbd960d4e	-0.073267564
6	0x3b7dd31b	0.0038730565
7	0x3e254852	0.1614087
8	0x3b50028b	0.0031739797
9	0x3dfcecef	0.12349879
10	0x3e058597	0.13039242
11	0xbe7d8c69	-0.24760593
12	0xbdc8e89c	-0.09809992
13	0xbeb903d0	-0.3613572
14	0xbccf8977	-0.025334103
15	0x3d931cd5	0.07183234
16	0xbe850a37	-0.25984356
17	0xbe6ad00b	-0.22930925
18	0x3e7b54f0	0.2454412
19	0xbe5f7d6d	-0.2182519
20	0xbe7a3b08	-0.24436581
21	0xbebcb20b	-0.36854586
22	0xbd06c20a	-0.032899894
23	0xbcb1e4ac	-0.021715485
24	0x3def251e	0.116770014
25	0xbe8c8cd8	-0.27451205
26	0xbe6f9c22	-0.23399404
27	0xbeda58b2	-0.42645794
28	0xbdc8d3a4	-0.09805992
29	0xbe933ab2	-0.28755718
30	0xbf0fcc84	-0.5617144
31	0x3e50be13	0.20385008
32	0x3d97e9f6	0.074176714
33	0x3bf25f70	0.007396631
34	0x3dedf188	0.11618334
35	0xbe342c8a	-0.17595115
36	0xbdd07d55	-0.10180155
37	0x3dc3b760	0.095564604
38	0x3cca8042	0.024719361
39	0xbdd7b92d	-0.10533366
40	0x3e03c0ea	0.1286656
41	0xbe2a703d	-0.16644378
42	0xbe9417b3	-0.2892433
43	0xbda9f8de	-0.08299421
44	0xbe1e528f	-0.15461181
45	0xbe23098b	-0.15921609
46	0x3dddf72e	0.108381614
47	0xbe2852cf	-0.16437839
48	0xbd86609c	-0.065613955
49	0x3ccaf63d	0.024775619
50	0xbe1ed153	-0.15509538
51	0xbe6b8d3e	-0.23003098
52	0x3d22133b	0.03956912
53	0x3e504ef8	0.20342624
54	0x3e0b0452	0.13575867
55	0x3de2657b	0.11054512
56	0xbe118a57	-0.14212929
57	0x3b8855a5	0.0041606002
58	0xbdf710a7	-0.12063723
59	0xbd2ef709	-0.04271606
60	0x3c90a9d1	0.0176591
61	0xbbd35938	-0.0064498447
62	0x3dc23db9	0.09484429
63	0xbe118d16	-0.14213976
64	0x3d25c6b1	0.04047269
65	0x3c3192a3	0.010838184
66	0xbe101e33	-0.1407402
67	0xbe966a84	-0.2937814
68	0xbe34b32d	-0.17646475
69	0x3ab3773e	0.0013692153
70	0xbe25975a	-0.16171017
71	0xbe419549	-0.18904604
72	0x3de37a35	0.111072935
73	0xbeee20a3	-0.46509275
74	0xbd4e4133	-0.050355148
75	0xbe512eb8	-0.20427978
76	0xbe76021c	-0.24024242
77	0x3e0db5e7	0.13838921
78	0xbda30b78	-0.07961172
79	0x3e0f7451	0.14009215
80	0x3d135545	0.03596999
81	0xbdca4aeb	-0.09877571
82	0xbeac931e	-0.33705992
83	0xbc9504fe	-0.018190857
84	0x3dabfe75	0.08398143
85	0xbe340c89	-0.17582907
86	0xbda49207	-0.08035665
87	0xbed86e6c	-0.42271745
88	0x3cd5da20	0.026104987
89	0x3da3e7cc	0.08003196
90	0x3d24d406	0.040241264
91	0x3e239fed	0.15978976
92	0xbe058325	-0.13038309
93	0xbeb40834	-0.35162508
94	0x3d8cd3c9	0.06876332
95	0xbdc792d4	-0.09744802
96	0xbdbea486	-0.09308724
97	0xbea5bd51	-0.32371
98	0xbf0a0374	-0.5391152
99	0x3d280782	0.041022785
100	0x3e13cef0	0.14434409
101	0xbc9d9b2a	-0.019239027
102	0x3e180238	0.14844596
103	0xbd752f78	-0.059859723
104	0xbd4a9027	-0.04945388
105	0x3aaad11c	0.001303229
106	0x3d5eabc1	0.054363016
107	0xbe18ac0b	-0.14909379
108	0xbd07f8c9	-0.033196244
109	0x3d203c2e	0.03911989
110	0x3df7c17a	0.120974496
111	0xbe8f1856	-0.27948254
112	0x3d85cb9c	0.06532976
113	0x3ab49ec4	0.0013780226
114	0xbecf1bcd	-0.40450898
115	0x3e3440fd	0.17602916
116	0x3d6d6e50	0.05796653
117	0x3da00649	0.07813699
118	0xbe758969	-0.23978199
119	0xbd2f19bf	-0.042749163
120	0xbe63a6ee	-0.22231647
121	0xbde7c3eb	-0.11316665
122	0x3e490d16	0.19633898
123	0x3db5ce53	0.08877244
124	0x3e50397d	0.2033443
125	0x3dfa2b35	0.12215272
126	0xbe04ff4d	-0.12988015
127	0x3d5b1409	0.053485904
128	0x3da74a4e	0.08168469
129	0x3ca32baa	0.019918282
130	0xbd204430	-0.03912753
131	0xbdd9cc20	-0.10634637
132	0x3e0e0d7d	0.13872333
133	0xbe2e028b	-0.16993158
134	0xbd890084	-0.066895515
135	0x3daaf3fe	0.08347319
136	0x3d4cf0fa	0.0500345
137	0x3dad17da	0.08451815
138	0x3d4489fe	0.047983162
139	0xbec1a10a	-0.37818176
140	0xbe80f957	-0.2519023
141	0xbec30324	-0.38088334
142	0xbd961621	-0.073284395
143	0xbca69ed7	-0.020339413
144	0x3cfa62f4	0.030564763
145	0xbf11aacb	-0.56901234
146	0x3d6cff71	0.057860795
147	0xbe2e7f1f	-0.1704068
148	0xbcf1ca7d	-0.0295155
149	0xbd6dab9d	-0.05802499
150	0xbc8fb60a	-0.017542858
151	0xbe4d781a	-0.20065346
152	0x3e052e3f	0.13005923
153	0xbdeccf30	-0.115629554
154	0x3dab8c73	0.08376398
155	0xbf376ce1	-0.7165051
156	0x3e0c9b88	0.13731205
157	0x3e21447a	0.15748778
158	0x3db496f3	0.08817854
159	0xbe5329cc	-0.20621413

output.bias f4 [4]
0	0x3d2c02f0	0.04199499
1	0x3dda75b2	0.1066698
2	0xbd334129	-0.043763313
3	0xbeba45f9	-0.3638151
