Assets/BNM001 1.onnx (onnx, 23473 bytes, 6 tensors)

input.weight f4 [40, 40]
0	0xbe307d7a	-0.17235366
1	0xbde690f7	-0.112581186
2	0x3e08c567	0.13356553
3	0xbe84c7bd	-0.25933638
4	0x3c7b604a	0.015342781
5	0xbdfefe64	-0.12450865
6	0xbdb7104b	-0.089386545
7	0x3c84a0c3	0.016189938
8	0xbe2c8137	-0.16846167
9	0xbe25a885	-0.16177566
10	0xbe2f8505	-0.17140587
11	0xbe5c0d65	-0.21489485
12	0xbd31e39a	-0.04342995
13	0xbd291266	-0.04127731
14	0xbe1e0079	-0.15429868
15	0xbdb662ed	-0.08905587
16	0xbe179337	-0.14802252
17	0xbdcb3df9	-0.0992393
18	0x3d9a9223	0.075474046
19	0xbdb4fdf4	-0.088375
20	0x3dde2cd6	0.108483955
21	0x3c1e4c63	0.009661767
22	0x3d819e86	0.06329064
23	0x3e3dbeaa	0.18529764
24	0xbc8995ae	-0.016795006
25	0xbdd21f18	-0.10259837
26	0x3d11e5e5	0.035619635
27	0x3e1a274a	0.1505405
28	0x3ba751cf	0.005106188
29	0x3e228008	0.15869153
30	0x3e1fe5c5	0.15614994
31	0x3d0a4a49	0.03376225
32	0x3da9b765	0.08286933
33	0xbe3072ab	-0.17231242
34	0x3e6be1f7	0.23035417
35	0x3e83219e	0.25611585
36	0x3def0685	0.116711654
37	0x3e19f203	0.15033726
38	0x3ded04b7	0.11573165
39	0x3eaea346	0.34108943
40	0xbde0178c	-0.10941991
41	0xbe321393	-0.1739028
42	0x3ade0c6d	0.0016940959
43	0xbdf7f742	-0.121077076
44	0x3d6c9b64	0.05776538
45	0x3d21a76e	0.039466314
46	0xbe06e0bc	-0.13171667
47	0x3c8b2a29	0.016987877
48	0xbe64ed73	-0.22356205
49	0xbdff6311	-0.12470067
50	0x3dfcaf14	0.12338081
51	0xbdff8b76	-0.12477772
52	0xbdcb2d55	-0.09920756
53	0xbcc6bf45	-0.024261126
54	0xbe203b46	-0.15647611
55	0xbe4d1bee	-0.20030186
56	0xbe47bb47	-0.19505034
57	0xbd405836	-0.046959125
58	0x3dfa43e9	0.12219984
59	0xbe3da090	-0.18518281
60	0x3d0f7d12	0.035031386
61	0x3d52b167	0.051438715
62	0x3d018d92	0.031629153
63	0x3dda5dd4	0.106624275
64	0xbe54e59c	-0.20790714
65	0x3d2fb8fa	0.042901017
66	0x3e09c02d	0.13452215
67	0x3e3c6afe	0.1840019
68	0xbd07778a	-0.033072986
69	0xbdf50d0b	-0.119653784
70	0xbd9f12f2	-0.077672854
71	0xbcd4d16c	-0.025978766
72	0x3ccb515d	0.02481907
73	0xbe1c649c	-0.15272754
74	0x3e2239e2	0.15842393
75	0x3e3e9c12	0.18614224
76	0x3d4eeb33	0.050517272
77	0xbdc189d9	-0.094501205
78	0x3e05690a	0.1302835
79	0xbdbec4f5	-0.0931491
80	0xbd532c1a	-0.05155573
81	0xbe3a0f86	-0.18169984
82	0x3dd6a5f0	0.10480869
83	0x3d13eed2	0.03611643
84	0xbd0fc945	-0.035104055
85	0x3d1fc14c	0.0390027
86	0xbd1b192d	-0.037865806
87	0xbda9b15f	-0.08285784
88	0xbd0696cd	-0.03285866
89	0xbe0b7a7b	-0.13620941
90	0x3da534fa	0.08066745
91	0xbe0682ee	-0.13135883
92	0xbd965726	-0.07340841
93	0xbdbfd61a	-0.093670085
94	0xbd613eb3	-0.054991435
95	0xbd95eb85	-0.073203124
96	0x3dad605e	0.08465646
97	0xbe4f2eb9	-0.20232667
98	0x3e07efa3	0.13275008
99	0x3d90308e	0.07040511
100	0x3d138440	0.036014795
101	0xbdf34ab6	-0.11879484
102	0xbd891b85	-0.06694702
103	0xbe398278	-0.18116176
104	0xbde7d304	-0.11319545
105	0xbdf0220e	-0.117252454
106	0x3e10721d	0.14106031
107	0xbdc2b109	-0.09506423
108	0x3d063425	0.032764573
109	0xbcf4fb12	-0.029904876
110	0xbdde61a9	-0.10858471
111	0xbcd37e43	-0.025817042
112	0xbe081b5e	-0.1329169
113	0x3ce33da0	0.027739346
114	0x3d71f3cb	0.05907039
115	0x3dadeddb	0.08492633
116	0xbbd7b609	-0.0065829796
117	0xbdbf19fe	-0.093311295
118	0xbe0b912a	-0.13629594
119	0xbe12aaab	-0.14322917
120	0xbdb46f3d	-0.088102795
121	0xbe0d9bfa	-0.13829032
122	0xbe6458ae	-0.22299454
123	0xbdd3c868	-0.10340959
124	0xbe5cb482	-0.21553233
125	0x3da0c091	0.07849229
126	0x3dedfc78	0.1162042
127	0x3d865e6e	0.0656098
128	0xbe1c4172	-0.1525934
129	0xbdec2ad1	-0.11531604
130	0x3bd41a46	0.0064728586
131	0xbe290898	-0.16507185
132	0xbe922d77	-0.28550312
133	0x3dde2379	0.108466096
134	0x3d46cfde	0.04853808
135	0xbe062c26	-0.13102779
136	0xbdb2048f	-0.08692276
137	0xbde71680	-0.112835884
138	0x3ea6d4b9	0.3258417
139	0xbe103220	-0.14081621
140	0xbdbbf7a6	-0.091780946
141	0xbdd5148e	-0.10404311
142	0x3d69557f	0.0569663
143	0x3bea829a	0.007156682
144	0xbb0e302c	-0.0021696193
145	0xbdf69272	-0.12039651
146	0x3e809484	0.25113308
147	0xbcf5b63b	-0.02999412
148	0xbe877b4a	-0.2646125
149	0x3c9b6f12	0.01897386
150	0xbc208680	-0.009797692
151	0x3d9d3a94	0.076771885
152	0xbdc51c3d	-0.09624527
153	0xbe0c94ab	-0.13728587
154	0xbd4daca1	-0.05021346
155	0xbdcfc767	-0.10145455
156	0xbe036e37	-0.12835012
157	0xbdb51b7c	-0.08843133
158	0xbb89a017	-0.0041999924
159	0xbc05ecfa	-0.008174175
160	0xbdae9ed4	-0.08526388
161	0xbd77fee0	-0.060545802
162	0xbc01c6cf	-0.007920935
163	0xbde23f5c	-0.11047241
164	0xbdf24bb2	-0.11830844
165	0xbe10ef26	-0.14153728
166	0x3b449a78	0.0029999297
167	0x3d1f00cf	0.03881913
168	0xbdcd9776	-0.100386545
169	0xbd4639fe	-0.04839515
170	0xbcd31b93	-0.025769984
171	0x3da8e6fd	0.082471825
172	0x3d2b762a	0.041860737
173	0xbe196275	-0.14978965
174	0x3dbccd1f	0.09218811
175	0xbe169db6	-0.147086
176	0xbcb27504	-0.021784313
177	0xbd1497be	-0.036277525
178	0xbe28302b	-0.16424625
179	0x3dc8b75b	0.09800597
180	0xbd705e6a	-0.05868379
181	0xbcafbde9	-0.02145286
182	0xbdeae461	-0.11469341
183	0xbdd17db4	-0.10229054
184	0xbe154cd3	-0.14580087
185	0xbd82ba97	-0.063832454
186	0x3ddc47a9	0.107558556
187	0xbe12e246	-0.14344129
188	0xbd049c40	-0.032375574
189	0xbe15b056	-0.14618048
190	0x3d22d549	0.039754186
191	0xbdf71add	-0.12065671
192	0xbd8b3c6c	-0.06798634
193	0x3cd2a5f0	0.02571389
194	0xbde6241e	-0.112373576
195	0xbdcaf302	-0.09909631
196	0xbde66a06	-0.11250691
197	0xbddfcd26	-0.10927801
198	0x3d349c19	0.04409418
199	0xbd95c57c	-0.07313058
200	0x3bcbb437	0.0062165516
201	0xbdcfe2c1	-0.10150672
202	0x3ce42d45	0.027853617
203	0xbe70dcbf	-0.23521708
204	0xbe0d0eca	-0.13775173
205	0xbdb33d49	-0.087519236
206	0x3c8cf5d8	0.017207071
207	0xbc977a3b	-0.018490901
208	0xbbddc4a0	-0.0067678243
209	0xbe160071	-0.14648606
210	0xbdb82968	-0.089922726
211	0xbde0e59d	-0.10981295
212	0xbe3245da	-0.17409459
213	0x3d12b0cd	0.03581314
214	0xbd82eddd	-0.06393025
215	0xbb0e19bc	-0.002168282
216	0x3d8c8027	0.068603806
217	0xbd4a5e51	-0.049406353
218	0x3b994c82	0.00467831
219	0xbd0565d1	-0.032567803
220	0x3d6b4b26	0.057444714
221	0x3d8132c3	0.0630851
222	0xbe02c617	-0.12770878
223	0x3cc2369a	0.023707677
224	0xbdfc29d0	-0.123126626
225	0xbd4efdd1	-0.050535027
226	0xbe23305a	-0.15936413
227	0x3cd8489b	0.026401808
228	0x3dcf0791	0.10108865
229	0x3defd8c5	0.117112674
230	0x3d4e4e57	0.05036768
231	0x3df3d2a1	0.11905409
232	0xbda21b14	-0.07915321
233	0xbcb98c4f	-0.022649912
234	0x3cc8c050	0.024505764
235	0x3d87c6cb	0.066297136
236	0x3c8c68f1	0.017139884
237	0xbe12c039	-0.1433114
238	0xb83ef6bd	-4.5529323e-05
239	0xba7635eb	-0.00093921897
240	0x3e6d13ea	0.23152128
241	0xbda398ce	-0.079881296
242	0xbd1b0ce0	-0.037854075
243	0xbd1e5778	-0.038657635
244	0x3dee57a6	0.11637811
245	0xbe18dc1d	-0.14927717
246	0x3ada7008	0.0016665468
247	0xbdd12fb8	-0.1021418
248	0x3ec1e4eb	0.37869963
249	0xbd8b41e5	-0.06799678
250	0xbd965c92	-0.07341875
251	0xbd854cd4	-0.065087944
252	0x3dd86cd7	0.105676346
253	0xbdd2fdc6	-0.1030231
254	0x3a2b7168	0.0006540031
255	0xbe5a912c	-0.21344441

input.bias f4 [40]
0	0xbecdac83	-0.40170678
1	0xbb522f20	-0.0032071546
2	0xbe47c0dc	-0.19507164
3	0xbdc102b4	-0.09424344
4	0x3c97deae	0.0185388
5	0xbcc1c8d8	-0.02365534
6	0x3dedad83	0.1160536
7	0x3e6e6e90	0.23284364
8	0x3eb39b15	0.35079256
9	0x3b85b81f	0.004080787
10	0x3d9b24da	0.07575388
11	0xbd8e5911	-0.06950582
12	0xbd015140	-0.031571627
13	0xbe7ffe96	-0.2499946
14	0x3e216c54	0.1576398
15	0xbeb4b61f	-0.35295197
16	0xbd7c55a1	-0.0616051
17	0xbea84046	-0.32861537
18	0x3e98d760	0.29851818
19	0xbe365589	-0.17806067
20	0x3d26378e	0.040580325
21	0xbd51b940	-0.05120206
22	0x3ea7b56c	0.327556
23	0xbe11ef40	-0.14251423
24	0x3df17a7b	0.117909394
25	0xbd8edae7	-0.06975346
26	0x3d8423e7	0.0645216
27	0xbe7ca9d9	-0.24674167
28	0xbe707fa3	-0.2348619
29	0xbdc9f03c	-0.09860274
30	0x3b39b76d	0.002833809
31	0xbe3ccc46	-0.18437299
32	0xbd635992	-0.055505343
33	0x3def1794	0.11674419
34	0xbe374440	-0.17897129
35	0xbcd53990	-0.026028425
36	0x3c8a5089	0.016884105
37	0xbd13dd95	-0.03609999
38	0x3db2b6f6	0.08726303
39	0x3e428431	0.1899574

hidden.weight f4 [40, 40]
0	0xbced80c4	-0.028992064
1	0xbe3c94d6	-0.18416151
2	0x3d5e7f33	0.054320525
3	0xbdc42fd4	-0.09579435
4	0x3dbe178a	0.092818335
5	0xbd25f577	-0.040517297
6	0xbe170cde	-0.14751002
7	0xbda1a616	-0.078930065
8	0xbdf54543	-0.11976101
9	0xbe067768	-0.13131487
10	0xbe90d735	-0.2828919
11	0xbc177bf5	-0.009245862
12	0x3d003826	0.031303547
13	0x3d1aa083	0.037750732
14	0xbe18ce7c	-0.14922518
15	0x3db5f030	0.08883703
16	0xbe150eb7	-0.14556395
17	0xbd9f4c78	-0.07778257
18	0xbdb38dc3	-0.08767273
19	0x3d686fc0	0.056747198
20	0xbe3a87df	-0.18215893
21	0x3e1b93e0	0.15193129
22	0x3c2786b9	0.0102249915
23	0xbd18f772	-0.037345357
24	0x3e463e30	0.1935966
25	0x3defaec3	0.11703255
26	0x3dec1932	0.11528243
27	0xbdc70406	-0.09717564
28	0xbe83f3a1	-0.25771812
29	0xbd20351c	-0.03911315
30	0xbd86fa5d	-0.06590722
31	0xbc988226	-0.018616747
32	0xbd9f7f44	-0.07787946
33	0x3e14f749	0.14547457
34	0x3d868bb2	0.065696135
35	0x3e0f0205	0.13965614
36	0xbce65e6a	-0.028121192
37	0x3df27d3b	0.11840292
38	0xbdc4af51	-0.096037515
39	0xbe0178a8	-0.12643683
40	0x3d9a4371	0.07532395
41	0xbd195bb9	-0.03744099
42	0xbcfcf3dc	-0.030878
43	0xbe0ecd5f	-0.1394553
44	0xbe2131d5	-0.15741666
45	0x3e233a1d	0.15940137
46	0xbdd2a834	-0.102859885
47	0xbd5a48f4	-0.05329223
48	0xbe895f40	-0.26830482
49	0x3bcb8606	0.006211045
50	0xbcac0c08	-0.02100183
51	0xbdcb38db	-0.09922954
52	0xbda4e7c2	-0.08052017
53	0xbea848b3	-0.32867965
54	0x3cce6898	0.025196359
55	0xbe49869e	-0.19680259
56	0xbd8ec4f9	-0.06971163
57	0xbe429994	-0.19003898
58	0x3d6c0b79	0.05762813
59	0x3de6125c	0.112339705
60	0x3dd5d787	0.10441499
61	0xbca43735	-0.020045856
62	0xbeb47148	-0.35242677
63	0xbe0c195d	-0.1368155
64	0xbe1cefde	-0.15325877
65	0xbd561557	-0.052266445
66	0xbce3098e	-0.027714517
67	0x3c4ce236	0.012505105
68	0xbda56290	-0.0807544
69	0x3dd71fed	0.10504136
70	0x3d5d04d9	0.0539597
71	0xbdd1dcd0	-0.10247195
72	0x3db02d28	0.08602363
73	0x3d8c922a	0.06863816
74	0x3d110d7b	0.035413247
75	0xbe6a110a	-0.22858062
76	0xbdec99b2	-0.115527526
77	0xbdd50580	-0.1040144
78	0xbe18c931	-0.14920498
79	0xbe5599d6	-0.20859465
80	0xbd02dafa	-0.031947114
81	0xbd0048c8	-0.03131941
82	0xbe03eb06	-0.12882623
83	0x3d99a167	0.07501488
84	0x3ded0496	0.1157314
85	0xbdce2c88	-0.100670874
86	0xbd8e25aa	-0.069407776
87	0x3dde88a0	0.10865903
88	0xbea28845	-0.3174459
89	0x3e377f39	0.17919625
90	0x3ebe4d6d	0.37168446
91	0x3c6c893d	0.014437017
92	0xbab9b4e6	-0.0014168292
93	0x3d99bf16	0.0750715
94	0xbcbfe3bb	-0.02342402
95	0xbe71cd8f	-0.2361357
96	0x3df972fa	0.12180133
97	0xbd23047b	-0.039799195
98	0xbddd710c	-0.108125776
99	0xbd99e4be	-0.07514332
100	0xbb820ae2	-0.0039685825
101	0xbda32beb	-0.07967361
102	0x3e327ebf	0.17431162
103	0x3dcd635f	0.10028719
104	0xbe3b6a99	-0.18302383
105	0x3e05c249	0.13062395
106	0x3de6efee	0.11276232
107	0x3d72018b	0.059083503
108	0xbd1d16c6	-0.038351797
109	0xbc800fe8	-0.015632585
110	0xbd2d7aea	-0.042353548
111	0x3dcd9ba9	0.100394554
112	0xbe110447	-0.14161788
113	0xbe572f21	-0.21014072
114	0xbc570f36	-0.013126185
115	0x3e164d32	0.14677885
116	0xbe03d7a8	-0.12875235
117	0x3dbe9970	0.0930661
118	0x3e296ef0	0.16546226
119	0x3d59da3a	0.053186633
120	0xbe8fddbe	-0.28098863
121	0x3df2a5c1	0.11848021
122	0xbe67127f	-0.2256565
123	0xbe061e85	-0.1309758
124	0x3d0e1411	0.034687106
125	0x3d5e5071	0.054275934
126	0xbdd6800a	-0.1047364
127	0x3e58ecd0	0.21184087
128	0xbe425c17	-0.18980442
129	0x3d1e78df	0.03868949
130	0xbcfe15de	-0.031016286
131	0xbd4c9f28	-0.04995647
132	0xbdfb679d	-0.12275622
133	0xbe0f1a46	-0.13974866
134	0x3d6abc81	0.057308678
135	0xbd74a800	-0.05973053
136	0x3dba7fcb	0.09106406
137	0x3d2ae42c	0.041721508
138	0xbce6b1f2	-0.028161023
139	0xbd5329b8	-0.051553458
140	0x3e5b761e	0.21431777
141	0xbda6e169	-0.08148462
142	0x3d047cb6	0.032345496
143	0x3e04af5f	0.12957524
144	0xbdc9d82b	-0.09855684
145	0xbdd21753	-0.10258355
146	0x3db320ff	0.08746528
147	0xbe0a91a3	-0.13532118
148	0xbdcdb9b2	-0.10045184
149	0xbc6ba498	-0.014382504
150	0xbd437e2f	-0.04772776
151	0xbd9a61a0	-0.07538152
152	0x3db16cd8	0.086633384
153	0xbd970910	-0.073747754
154	0x3e60802e	0.21923897
155	0x3e93024b	0.28712687
156	0xbde320fd	-0.110902764
157	0xbd0820ed	-0.033234525
158	0xbdcf7efc	-0.10131642
159	0x3d429cdb	0.04751287
160	0x3e2f49c0	0.17117977
161	0x3e3cb9d5	0.18430264
162	0xbe01565a	-0.12630597
163	0x3dac909f	0.08426022
164	0x3d905758	0.070479095
165	0x3d72a7a4	0.059241906
166	0x3d8c286d	0.06843648
167	0xbe50cb0f	-0.2038996
168	0x3c0bf1c5	0.008541529
169	0xbdfc474c	-0.12318286
170	0xbd4a5b41	-0.049403433
171	0xbc2358e0	-0.00996992
172	0xbe0151dd	-0.12628885
173	0x3dd06bb3	0.10176792
174	0xbd114b25	-0.035472054
175	0x3ce865a3	0.028368777
176	0x3def658f	0.11689293
177	0xbe277b14	-0.16355544
178	0xbe0f3fee	-0.13989231
179	0x3dd402b2	0.103520766
180	0xbe36d5f4	-0.17855054
181	0xbd91d25e	-0.071202025
182	0xbda1c2b3	-0.07898464
183	0xbc1f8de5	-0.00973842
184	0xbd765780	-0.06014204
185	0xbd2cd112	-0.042191572
186	0xbbcda053	-0.0062752157
187	0x3e256c4d	0.16154595
188	0xbd66241d	-0.056186784
189	0x3d920997	0.07130735
190	0x3ca4f6ff	0.020137308
191	0x3d1438fa	0.03618715
192	0xbe3934ff	-0.18086623
193	0x3c6eb514	0.01456954
194	0xbdecb262	-0.11557461
195	0x3e02f6f8	0.12789524
196	0x3bc8ee71	0.00613194
197	0xbe08d42e	-0.1336219
198	0xbe076740	-0.1322298
199	0xbe863cff	-0.2621841
200	0xbe9c9c9d	-0.30588236
201	0xbdd0d9b8	-0.101977766
202	0x3d00bcaa	0.031429924
203	0xbe64ecec	-0.22356004
204	0x39aa8c4b	0.00032529453
205	0xbe079c66	-0.13243255
206	0x3e6e4c81	0.23271371
207	0x3e15b966	0.14621505
208	0x3e491c31	0.1963966
209	0x3db76e37	0.08956569
210	0xbcfd2adf	-0.030904232
211	0x3dbeca73	0.09315958
212	0xbd75335c	-0.059863433
213	0xbdead2ba	-0.11465974
214	0x3d3723bb	0.04471181
215	0xbcd803a6	-0.026368927
216	0xbd5e9819	-0.05434427
217	0x3b9e904c	0.004838979
218	0xbe8cea36	-0.2752244
219	0x3d9cbee4	0.07653597
220	0x3d38ce4c	0.045118615
221	0xbd517092	-0.051132746
222	0xbe75e0f1	-0.2401159
223	0xbd48f643	-0.04906298
224	0x3b2f0f34	0.0026711943
225	0x3c01ca9c	0.007921841
226	0x3d68d159	0.056840274
227	0xbe0a7085	-0.13519485
228	0x3e447c20	0.19187975
229	0xbdd3ed55	-0.10348002
230	0x3dd9d0db	0.10635539
231	0xbcd87be4	-0.026426263
232	0x3c947311	0.018121274
233	0x3de1a8d8	0.110185325
234	0xbe0ddd5d	-0.13853975
235	0xbd5fa046	-0.054596208
236	0xbd96a02b	-0.07354768
237	0x3c8016e9	0.015635924
238	0x3db4fbed	0.088371135
239	0xbe772676	-0.24135765
240	0x3c8a7cfc	0.0169053
241	0x3e0b5a9f	0.13608788
242	0xbd9c3990	-0.07628167
243	0x3e2447cb	0.16043012
244	0x3db66e30	0.08907735
245	0x3d523ab2	0.051325507
246	0x3db7a4a4	0.089669496
247	0x3e2359e6	0.15952262
248	0xbe879c35	-0.26486364
249	0xbda17545	-0.078836955
250	0xbdfe2595	-0.12409512
251	0xbe32c622	-0.17458394
252	0xbe0592b9	-0.13044252
253	0xbcc4f307	-0.024041666
254	0xbd8dda9c	-0.06926462
255	0xbcd46a67	-0.025929643

hidden.bias f4 [40]
0	0xbdaa2888	-0.08308512
1	0xbd3eafe1	-0.04655445
2	0xbd0e6ee6	-0.03477373
3	0xbc2f2ea8	-0.010692276
4	0xbea5d9c4	-0.32392704
5	0x3e37ba77	0.17942224
6	0x3e1952fa	0.1497306
7	0xbed44010	-0.41455126
8	0xbc0ba62c	-0.008523505
9	0xbf1f9ce5	-0.6234878
10	0xbe5d3854	-0.21603519
11	0xbd634cb4	-0.05549307
12	0x3c07ba92	0.008284228
13	0x3e2a74be	0.16646096
14	0xbe35fc2d	-0.17771979
15	0xbd0a671e	-0.033789746
16	0x3c744c26	0.014910733
17	0xbcdd2282	-0.026993994
18	0x3cb93251	0.022607
19	0x3e6b5d5f	0.22984837
20	0x3e852ea2	0.2601214
21	0x3dbe5bf6	0.09294884
22	0x3c71d42c	0.014760058
23	0x3d8c9513	0.06864371
24	0xbe912447	-0.2834799
25	0x3d0b221e	0.033968084
26	0xbe3f04a5	-0.18654115
27	0xbcc5eaae	-0.024159756
28	0xbec71ca9	-0.38889053
29	0x3e567cc3	0.2094603
30	0xbe5a1f9c	-0.2130112
31	0x3d601078	0.054703206
32	0xbd732aad	-0.05936687
33	0xbe2a54da	-0.16633931
34	0xbe0cfab2	-0.13767508
35	0x3d539dac	0.05166404
36	0x3d5ed476	0.054401837
37	0xbf131562	-0.574545
38	0xbe9cc28b	-0.30617175
39	0x3d481b27	0.04885402

output.weight f4 [4, 40]
0	0x3d9d4acd	0.07680283
1	0xbd2c0e76	-0.04200598
2	0xbe0ada53	-0.13559847
3	0x3e1711f0	0.14752936
4	0xbe38aa82	-0.18033794
5	0xbe1741d2	-0.14771202
6	0x3d67c81d	0.056587327
7	0x3d974d00	0.073877335
8	0x3e197bee	0.14988682
9	0xbe0030ff	-0.1251869
10	0xbcdfef83	-0.027335888
11	0x3de4def7	0.1117534
12	0xbcea3f6c	-0.028594695
13	0x3df67161	0.12033344
14	0x3d66d3d2	0.05635435
15	0xbc15e219	-0.009148144
16	0x3c39a439	0.011330658
17	0x3da99dff	0.082820885
18	0x3db473cb	0.08811148
19	0xbe2e2b1e	-0.17008635
20	0x3d9a7b8a	0.075430945
21	0x3dc533b9	0.09629006
22	0x3db479b2	0.08812274
23	0xbe9a2cb1	-0.30112222
24	0xbd5eca08	-0.05439189
25	0x3dda2aea	0.106527165
26	0xbcf9c9e6	-0.03049178
27	0xbdb4f49b	-0.08835717
28	0xbd7077ac	-0.058707878
29	0xbea12991	-0.31477025
30	0xbdccf885	-0.10008339
31	0x3d50bde4	0.050962344
32	0x3b6b1464	0.0035870308
33	0xbd5c0740	-0.05371785
34	0x3d21d538	0.039509982
35	0xbd70f1da	-0.058824398
36	0x3dfc587a	0.12321563
37	0x3d974eab	0.073880516
38	0xbe04a147	-0.12952147
39	0x3dbfe8d5	0.09370581
40	0xbe656b5e	-0.22404239
41	0x3d310d8d	0.043225814
42	0xbd9c0b77	-0.07619374
43	0x3db71e3d	0.08941314
44	0x3dc781b6	0.09741537
45	0xbddc83a9	-0.107673
46	0x3de7b3ad	0.11313567
47	0xbcb9cf71	-0.022681924
48	0xbe338390	-0.17530656
49	0x3cdab58b	0.026697895
50	0x3c40a487	0.011757976
51	0xbe4bc701	-0.19900133
52	0xbe05e100	-0.13074112
53	0xbd5e7bdd	-0.054317344
54	0xbdc9d962	-0.098559156
55	0x3d61917e	0.055070393
56	0x3d490f82	0.049087055
57	0x3db565ee	0.08857332
58	0x3d6720b9	0.05642769
59	0x3ddbaeaa	0.10726674
60	0x3c82ec40	0.015981793
61	0x3db53fee	0.08850084
62	0xbd979e69	-0.07403261
63	0xbb83f537	-0.0040270346
64	0xbdf5ab14	-0.11995521
65	0xbe12f998	-0.14353025
66	0x3d2bc0df	0.041931983
67	0xbd39e2d5	-0.04538234
68	0xbe32472a	-0.1740996
69	0xbdade8b1	-0.08491648
70	0xbdd8dd3d	-0.10589073
71	0x3e21fd92	0.15819386
72	0xbd656933	-0.05600853
73	0xbd0c8286	-0.034304164
74	0xbe1fc873	-0.15603809
75	0xbe83fa3b	-0.25776848
76	0xbdb31c6b	-0.08745655
77	0xbe0f3e0e	-0.13988516
78	0xbebf48f1	-0.37360337
79	0xbe595e04	-0.2122727
80	0xbec01e52	-0.37523133
81	0xbe6786f2	-0.22610071
82	0x3e87b89c	0.26508033
83	0xbd2799e3	-0.040918242
84	0x3d81a308	0.06329924
85	0x3df18131	0.117922194
86	0x3cbbd1f8	0.02292727
87	0x3d59c103	0.053162586
88	0x3ce866c5	0.028369317
89	0x3d9ce224	0.076603204
90	0x3cb1e9ca	0.021717925
91	0xbdab3592	-0.08359827
92	0xbc6d8a10	-0.014498249
93	0x3dcde20a	0.10052879
94	0x3e4161ff	0.18885039
95	0xbd338912	-0.043831892
96	0x3e1c7dd6	0.15282378
97	0x3d3869b9	0.0450227
98	0xbdc7b4dc	-0.09751293
99	0xbe2facdd	-0.17155786
100	0xbdae69e8	-0.08516294
101	0xbe2ca8f2	-0.16861323
102	0xbd6fcbe5	-0.05854406
103	0x3e31dc86	0.1736928
104	0xbc998776	-0.01874135
105	0x3dddee29	0.10836441
106	0xbdc40b49	-0.09572465
107	0xbd2efd0e	-0.0427218
108	0xbe3ed179	-0.18634595
109	0x3d8406b8	0.06446594
110	0x3abfe946	0.0014641664
111	0xbdbbb90f	-0.091661565
112	0x3d0249d6	0.031808697
113	0xbc87823b	-0.01654159
114	0xbd6ae3bc	-0.05734609
115	0xbe540593	-0.20705251
116	0xbc0dbd62	-0.008651109
117	0xbdd4adf4	-0.103847414
118	0xbda4f9f0	-0.08055484
119	0xbd22d6dd	-0.03975569
120	0x3d6c8420	0.05774319
121	0xbd729e33	-0.0592329
122	0xbe3fa37f	-0.18714713
123	0xbd42af84	-0.047530666
124	0xbdbce6e0	-0.092237234
125	0xbcc3e8b4	-0.023914672
126	0xbea9b5f3	-0.3314663
127	0x3d8f66de	0.07002042
128	0x3cf5067d	0.02991032
129	0xbc58a9c9	-0.013224074
130	0x3db647e7	0.08900433
131	0x3d3f3d3e	0.046689264
132	0x3e4b5380	0.19856071
133	0x3c017af7	0.007902852
134	0x3d045891	0.032311026
135	0xbdb60f5e	-0.0888965
136	0x3e26a1a1	0.16272594
137	0x3ce8c3a9	0.02841361
138	0x3d0584db	0.032597404
139	0x3d41d242	0.047319658
140	0x3d3b15c9	0.045675073
141	0xbe86b6e6	-0.26311415
142	0x3df92b61	0.12166477
143	0xb9e34a3a	-0.00043352117
144	0x3e36ffea	0.17871061
145	0x3d7fb0f2	0.062424608
146	0xbd7e2664	-0.06204833
147	0xbde09ea8	-0.10967761
148	0xbdf0faf2	-0.11766614
149	0x3cd1d58f	0.025614528
150	0x3d25a461	0.040439967
151	0xbe653fd9	-0.22387637
152	0xbd006cd9	-0.031353805
153	0x3d0d8a03	0.034555446
154	0xbd59a661	-0.053137187
155	0x3da01f88	0.07818514
156	0x3db27c35	0.08715097
157	0xbe5b344b	-0.21406667
158	0x3db077c4	0.086165935
159	0x3c260a7a	0.010134334

output.bias f4 [4]
0	0x3de2bac1	0.11070777
1	0x3e8564fe	0.26053613
2	0xbdda35d4	-0.10654798
3	0xbef19bdd	-0.47189227
