Assets/example.onnx (onnx, 14700 bytes, 6 tensors)

input.bias f4 [40]
0	0xbc56ae45	-0.0131030725
1	0x3d822501	0.06354714
2	0xbd4d6c4c	-0.050152108
3	0x3cfc5e29	0.030806618
4	0x3d03cd87	0.032178428
5	0xbc85d318	-0.016336009
6	0xbd23c447	-0.039982107
7	0x3df167cb	0.11787375
8	0x3c7f7ff5	0.015594472
9	0x3dac6aaf	0.08418786
10	0xbdd61b1d	-0.1045439
11	0x3e5e6813	0.21719389
12	0xbe2709a1	-0.16312267
13	0xbe8b4517	-0.2720115
14	0xbb9124bb	-0.0044294274
15	0xbe154def	-0.1458051
16	0xbd4c19e9	-0.049829397
17	0xbda1ef40	-0.079069614
18	0xbdb4144b	-0.08792933
19	0x3e399500	0.18123245
20	0x3d63459a	0.0554863
21	0xbe551b15	-0.20811112
22	0xbdd39a67	-0.10332184
23	0xbe0700b4	-0.13183862
24	0xbdcc026a	-0.09961398
25	0xbdacf3fc	-0.08444974
26	0xbd966c87	-0.07344919
27	0xbd8cc648	-0.06873757
28	0x3cae7d15	0.021299878
29	0xbddcffa4	-0.10790947
30	0x3d41c357	0.04730543
31	0xbe64c393	-0.2234023
32	0xbe3095c5	-0.17244633
33	0x3dabcac7	0.08388286
34	0xbbe4e7d1	-0.0069856425
35	0x3d62fddb	0.055417877
36	0x3db23181	0.08700848
37	0x3ca3ac6f	0.019979684
38	0xbd9f3d43	-0.077753566
39	0x3ddd259e	0.107981905

hidden.bias f4 [40]
0	0x3d84cfa2	0.06484915
1	0xbe342739	-0.17593087
2	0xbda25b6b	-0.07927593
3	0xbde64845	-0.11244253
4	0xbe407a22	-0.1879659
5	0xbe273981	-0.1633053
6	0xbd69eec0	-0.057112455
7	0xbdd703c2	-0.104987636
8	0xbd70c01b	-0.058776956
9	0xbd6ecf70	-0.058303297
10	0x3ca5fbc0	0.020261645
11	0xbdb0ff5a	-0.086424544
12	0x3e05a034	0.13049394
13	0x3e45a9a0	0.19302988
14	0xbd05faeb	-0.032709997
15	0xbd9a870f	-0.07545292
16	0xbdd99237	-0.106235914
17	0x3ecc1cbd	0.39865676
18	0xbde56a25	-0.11201886
19	0xbd25d0b7	-0.04048225
20	0xbda1caa5	-0.078999795
21	0x3d3865a2	0.0450188
22	0xbe413b64	-0.18870312
23	0x3dfe5609	0.12418754
24	0xbe0b6176	-0.13611397
25	0x3e537dbd	0.20653434
26	0xbe5c0226	-0.21485195
27	0xbe21d496	-0.15803751
28	0x3db6f85c	0.089340895
29	0xbe7acb97	-0.24491726
30	0x3e396af7	0.1810721
31	0x3e9394b0	0.28824377
32	0x3e8377c1	0.25677302
33	0x3d3bfb5d	0.045894016
34	0xbd0bb152	-0.034104653
35	0xbeb3edbe	-0.3514232
36	0xbd338292	-0.043825693
37	0xbd834381	-0.0640936
38	0x3df8fa63	0.121571325
39	0x3e63ac9b	0.22233813

output.bias f4 [4]
0	0xbd0019de	-0.03127467
1	0x3e4ce734	0.20010072
2	0xbd815c0d	-0.063163854
3	0xbe2a6af5	-0.16642363

onnx::MatMul_19 f4 [40, 40]
0	0x3d6dc21d	0.05804645
1	0xbbdd1104	-0.006746413
2	0x3e4a8240	0.19776249
3	0x3d6a8461	0.057255153
4	0x3cd002e7	0.025392009
5	0x3e7264f9	0.2367133
6	0xbd1ff128	-0.039048344
7	0xbd601166	-0.054704092
8	0xbd9c5559	-0.07633466
9	0xbe094d61	-0.13408424
10	0x3ca6c7fb	0.02035903
11	0xbde348ce	-0.11097871
12	0xbd71efce	-0.059066586
13	0xbd2d3530	-0.04228705
14	0xbdfa67f9	-0.122268625
15	0xbe00cfad	-0.12579222
16	0x3e013e0a	0.12621322
17	0xbd86a997	-0.065753154
18	0xbc39fcea	-0.011351803
19	0x3e027c26	0.12742671
20	0x3d4c0666	0.04981079
21	0xbd787293	-0.06065614
22	0x3d42c70f	0.04755312
23	0xbde1549a	-0.110024646
24	0x3d95fdef	0.073238246
25	0x3da51edf	0.08062529
26	0xbe4574e0	-0.19282866
27	0xbd36167c	-0.044455037
28	0xbdda0b58	-0.10646695
29	0x3b447037	0.0029974112
30	0x3c9979c4	0.01873482
31	0x3d9706ac	0.073743194
32	0x3d8d1a5c	0.06889793
33	0xbe2d12a2	-0.16901639
34	0xbda57872	-0.08079614
35	0xbe1637cc	-0.14669722
36	0xbe3f589b	-0.18686144
37	0x3c458853	0.012056428
38	0xbd0aade9	-0.03385726
39	0xbd92d078	-0.071686685
40	0x3bf90993	0.0076000183
41	0x3dd6ebdd	0.10494206
42	0xbcb75d74	-0.02238343
43	0x3e312b1f	0.17301606
44	0xbe09552d	-0.13411398
45	0x3e1fb24f	0.15595363
46	0xbe4c9c31	-0.19981457
47	0xbc9d3b32	-0.019193266
48	0x3cb01019	0.021492051
49	0xbdc667f0	-0.09687793
50	0xbc57cda2	-0.013171585
51	0xbdb1e948	-0.08687073
52	0xbdd684c8	-0.10474545
53	0x3c1a2fbd	0.009410796
54	0x3dcf75db	0.10129901
55	0x3c836cdb	0.016043117
56	0xbe098321	-0.13428928
57	0xbcccf821	-0.02502066
58	0xbe378592	-0.17922047
59	0xbe05db17	-0.13071857
60	0xbdb497b3	-0.08817997
61	0xbcf2d45e	-0.02964228
62	0xbcc5c9f3	-0.024144148
63	0x3c46e195	0.012138744
64	0xbe3769a9	-0.179114
65	0xbe1523fa	-0.14564505
66	0xbdaca4bb	-0.08429857
67	0x3e7e94ff	0.24861525
68	0xbdc9607c	-0.09832856
69	0x3dc22058	0.09478825
70	0xbe06c484	-0.13160902
71	0xbe614cb9	-0.22001924
72	0x3e272eb5	0.16326411
73	0xbb69048a	-0.0035555684
74	0x3e4cb6e1	0.19991638
75	0xbd479a80	-0.048731327
76	0xbd79cbf0	-0.060985506
77	0x3cefc62a	0.029269297
78	0xbd489751	-0.04897243
79	0xbe4c7566	-0.19966659
80	0x3c975098	0.018471047
81	0xbe091a21	-0.13388874
82	0xbe11a660	-0.14223623
83	0xbda3f76b	-0.080061756
84	0xbd8071e5	-0.06271724
85	0xbd4810fe	-0.04884433
86	0xbd170c7c	-0.03687714
87	0xbdf0a4d8	-0.117501915
88	0xbddd97e4	-0.108199865
89	0xbcfe09af	-0.031010477
90	0x3ced405f	0.028961359
91	0x3da4290b	0.08015641
92	0x3db8cca6	0.090234086
93	0xbe19a785	-0.1500531
94	0xbda2ef97	-0.079558544
95	0xbe0b47e3	-0.13601641
96	0xbdcad7d4	-0.09904447
97	0xbda3e6f3	-0.080030344
98	0x3b5e6ce3	0.0033939413
99	0xbd886ae8	-0.06661016
100	0x3bf2c106	0.007408264
101	0x3c50997d	0.012731907
102	0xbe2c5684	-0.16829878
103	0xbe0d4fd8	-0.13799989
104	0xbe39d810	-0.18148828
105	0xbe1e2d3f	-0.15446948
106	0x3d8df751	0.069319375
107	0xbdb58317	-0.08862894
108	0x3d944775	0.07240192
109	0x3de14ea6	0.11001329
110	0xbd963aae	-0.07335411
111	0x3e01a3d4	0.12660152
112	0xbd7d4ab2	-0.061838813
113	0xbe06b325	-0.13154276
114	0xbd665092	-0.05622918
115	0xbd64ae82	-0.055830486
116	0xbdf8be03	-0.12145617
117	0xbded538d	-0.11588202
118	0xbbad66c0	-0.00529179
119	0x3d9a5ba6	0.07537012
120	0xbd3eeddb	-0.046613555
121	0x3d26eb9e	0.040752046
122	0x3dc49e1c	0.096004695
123	0x3b95abc2	0.0045675943
124	0x3db15e15	0.08660523
125	0x3e1f18ed	0.15536852
126	0xbe2968d8	-0.16543901
127	0xbd6f758b	-0.058461707
128	0x3dde73b8	0.10861915
129	0x3d896674	0.067089945
130	0x3c8d2109	0.017227666
131	0x3e83c34e	0.25734943
132	0xbbc91cb2	-0.006137454
133	0xbdc9934d	-0.098425485
134	0xbdfbaad9	-0.12288446
135	0xbe018db2	-0.12651709
136	0x3da583a7	0.08081751
137	0x3d01c73f	0.031684157
138	0xbdf049b0	-0.11732805
139	0xbcdde10d	-0.027084852
140	0xbca9faed	-0.020749534
141	0xbdd0af1b	-0.10189649
142	0x3da60b84	0.08107665
143	0xbe65b31a	-0.22431603
144	0xbe2059f7	-0.15659319
145	0xbd7a89b3	-0.061166476
146	0xbe6ade6b	-0.22936408
147	0xbe154c1d	-0.14579816
148	0xbca50dc2	-0.020148162
149	0xbd827d0a	-0.063715056
150	0x3d25e694	0.0405031
151	0xbe05e881	-0.13076974
152	0xbaf182a4	-0.0018425775
153	0xbe0a227f	-0.13489722
154	0xbe1b2540	-0.15150928
155	0xbd677696	-0.056509577
156	0xbd828b83	-0.06374266
157	0xbcd9583c	-0.026531331
158	0x3df87608	0.12131888
159	0xbd4739fa	-0.048639275
160	0xbdcaf959	-0.099108405
161	0xbdba147e	-0.0908594
162	0x3db029e2	0.086017385
163	0xbb1f5f3f	-0.0024318246
164	0xbe1f3358	-0.1554693
165	0x3d234aa8	0.03986612
166	0xbe739760	-0.23788214
167	0xbd1dc9fa	-0.038522698
168	0xbcce6274	-0.02519343
169	0xbdfef3ed	-0.12448869
170	0xbe127b14	-0.14304763
171	0x3df12513	0.117746495
172	0x3cd954d8	0.026529714
173	0xbe146462	-0.14491418
174	0xbd142eb8	-0.036177367
175	0x3c53b2df	0.012921064
176	0x3db1a9b7	0.08674949
177	0xbddc3945	-0.10753111
178	0xbd51782e	-0.051140003
179	0xbdbd2d7c	-0.09237191
180	0xbcf103a5	-0.029420683
181	0xbd83fb5a	-0.06444426
182	0xbd00c19b	-0.031434637
183	0xbd649fe0	-0.05581653
184	0x3d9603ae	0.073249206
185	0xbda57639	-0.0807919
186	0x3c9ca7bb	0.019122949
187	0x3a485cbd	0.00076432136
188	0x3d941d3f	0.07232141
189	0x3c89391c	0.016750865
190	0xbaff043e	-0.001945622
191	0xbdab226e	-0.08356176
192	0xbe0869ae	-0.13321564
193	0x3dad33dc	0.08457157
194	0xbdb272aa	-0.08713277
195	0xbb64227a	-0.0034810589
196	0xbe12c77b	-0.14333908
197	0x3e091ec9	0.1339065
198	0xbb606e6d	-0.0034245506
199	0xbe228fe3	-0.15875201
200	0x3c4d83bd	0.012543616
201	0xbcfb0950	-0.030644089
202	0x3d22c675	0.039740045
203	0x3d0a6c49	0.033794675
204	0xbdfdd3c9	-0.123939104
205	0x3c15ebb8	0.009150438
206	0xbd913f7a	-0.07092185
207	0x3dcc488c	0.09974775
208	0xbddc0386	-0.107428595
209	0xbe067b4e	-0.13132975
210	0xbd96359a	-0.073344424
211	0xbe4e0ff6	-0.20123276
212	0xbd9363fe	-0.07196806
213	0x3dcbcf80	0.09951687
214	0xbdb920bd	-0.090394475
215	0xbd94c006	-0.07263188
216	0xbbd89d34	-0.006610537
217	0xbcc55893	-0.024090087
218	0x3d04a7e4	0.032386675
219	0xbe19c5ac	-0.15016812
220	0x3d9100b8	0.07080215
221	0xbcd86709	-0.026416318
222	0xbcfbf8f7	-0.030758364
223	0xbdcf2579	-0.10114569
224	0xbe220004	-0.15820318
225	0xbe4c7318	-0.1996578
226	0x3d94bf0b	0.07263001
227	0x3dbb6211	0.09149564
228	0x3d1dab71	0.038493577
229	0xbdbbc5dc	-0.09168598
230	0x3e11bca4	0.14232117
231	0xbd6f3f71	-0.05841011
232	0xbc14e364	-0.009087417
233	0xbe44d8e3	-0.1922336
234	0xbe1210ab	-0.14264171
235	0xbdb2a3bd	-0.08722637
236	0xbd92d84f	-0.07170164
237	0x3cf8f0d9	0.030388283
238	0xbde474e6	-0.11155109
239	0x3a8ca6b9	0.001073084
240	0x3d50fb0e	0.051020674
241	0xbde58750	-0.112074494
242	0xbdd687b6	-0.104751036
243	0xbcc83329	-0.024438458
244	0xbe045b38	-0.12925422
245	0x3ca7b2eb	0.020471057
246	0xbdf8a147	-0.12140136
247	0xbe2172ca	-0.15766445
248	0x3c828701	0.015933516
249	0xbe270983	-0.16312222
250	0x3d2dd86b	0.04244272
251	0x3dc04f71	0.09390152
252	0xbbbb68f3	-0.005719298
253	0x3dde5f62	0.108580366
254	0x3b25af67	0.002528155
255	0xbdc9e504	-0.098581344

onnx::MatMul_20 f4 [40, 40]
0	0xbd924885	-0.07142738
1	0x3b38e177	0.002821056
2	0xbdb8a6aa	-0.09016164
3	0xbe58b0b5	-0.21161158
4	0x3d43994f	0.04775363
5	0x3d1f0164	0.038819686
6	0x3da71fad	0.081603386
7	0xbd605545	-0.05476882
8	0xbdd0b14b	-0.10190066
9	0xbd482528	-0.04886356
10	0x3cb3c317	0.021943612
11	0x3dcf2c33	0.10115852
12	0xbe311478	-0.17292964
13	0xbe37bedd	-0.17943902
14	0x3de3a176	0.111147806
15	0x3e2ac7a2	0.16677716
16	0xbcb76db9	-0.022391187
17	0x3d9437b4	0.07237187
18	0xbdc213fd	-0.09476469
19	0x3ded874a	0.1159807
20	0xbdbb9741	-0.09159709
21	0x3e206b17	0.15665852
22	0xbdcbe06e	-0.09954916
23	0xbd21044e	-0.039310746
24	0x3c06996e	0.008215291
25	0x3cf4fd1c	0.029905848
26	0xbe0899ee	-0.1333997
27	0xbd5e7023	-0.05430616
28	0x3db50258	0.08838338
29	0x3e37ef4a	0.17962375
30	0xbe0ac5a3	-0.13551955
31	0x3db1a5cc	0.08674201
32	0x3d9689ad	0.07350478
33	0xbe399293	-0.1812232
34	0xbd600a49	-0.05469731
35	0x3dc9c588	0.09852129
36	0x3c16f66a	0.009214023
37	0xbdd00bbd	-0.10158489
38	0xbc785e21	-0.015159161
39	0xbdf76585	-0.1207991
40	0xbe1eac39	-0.15495385
41	0x3dd0e3e9	0.101997204
42	0x3df2547e	0.11832522
43	0xbdfaf600	-0.12253952
44	0xbde90979	-0.1137876
45	0xbaf1d663	-0.0018450733
46	0x3dcd91d9	0.10037584
47	0x3d0ed300	0.034869194
48	0x3c940095	0.018066684
49	0xbd9dcfc3	-0.07705643
50	0xbd5c0bdb	-0.053722244
51	0x3ca2753d	0.019831294
52	0xbc1b03dd	-0.00946137
53	0x3d34c241	0.044130567
54	0xbd03a61b	-0.032140832
55	0xbd97a27d	-0.07404039
56	0x3db434a7	0.08799105
57	0xbd15031b	-0.036379915
58	0xbe109dd9	-0.14122714
59	0x3d103fde	0.03521716
60	0xba5d15b6	-0.0008433716
61	0x3dbfdd48	0.09368378
62	0x3dc89430	0.097938895
63	0x3db59f1e	0.0886824
64	0xbe02d939	-0.12778176
65	0xbd823b71	-0.06358994
66	0x3dd6c205	0.10486225
67	0xbc6304f3	-0.01385616
68	0x3d8496d5	0.064740814
69	0x3d6fc60e	0.05853849
70	0xbc3ebb6d	-0.0116413655
71	0xbd2d7640	-0.0423491
72	0x3e2a9f18	0.16662252
73	0xbc3a9b65	-0.011389588
74	0xbe03687e	-0.1283283
75	0x3d8cff46	0.06884627
76	0x3bb1e6c8	0.0054291226
77	0x3cc4a1d1	0.024002941
78	0xbdd1147c	-0.10208985
79	0xbda6a7e0	-0.08137488
80	0x3daa11de	0.08304189
81	0xbe19a847	-0.15005599
82	0x3e518085	0.20459183
83	0xbdc47000	-0.09591675
84	0xbe33b7f3	-0.1755064
85	0xbe0fc7ab	-0.14041011
86	0x3e0e6783	0.13906674
87	0x3e18e02b	0.14929263
88	0xbe20e434	-0.15712053
89	0xbddead64	-0.108729154
90	0xbe1a3d64	-0.15062481
91	0xbdaa5d6f	-0.08318602
92	0x3dd31cb6	0.103082106
93	0x3ddff881	0.1093607
94	0x3e1523d9	0.14564456
95	0x3d9b767c	0.075909585
96	0x3d61c4d0	0.055119336
97	0xbe233722	-0.15939
98	0xbda13cdc	-0.07872936
99	0xbe5beacb	-0.21476285
100	0xbdcbcd2a	-0.09951241
101	0x3cba09cc	0.02270975
102	0x3d2f6e57	0.042829838
103	0x3ba1e903	0.0049411072
104	0x3d6042be	0.05475115
105	0x3dd33d13	0.10314383
106	0xbde0eaf6	-0.10982315
107	0x3d3907ac	0.045173332
108	0xbdb5c30a	-0.088750914
109	0x3bf247df	0.0073938216
110	0xbdc1e289	-0.09467036
111	0xbd1b6899	-0.03794155
112	0x3d74173e	0.059592478
113	0xbbed22e7	-0.0072368267
114	0xbd3a7220	-0.045518994
115	0x3db9f775	0.09080402
116	0x3dc7f1dd	0.09762929
117	0xbd926693	-0.07148471
118	0x3ddbd05d	0.107331015
119	0xbd18ac4e	-0.037273698
120	0x3d8503b7	0.06494849
121	0x3e22f511	0.15913798
122	0x3e0af21c	0.1356892
123	0xbd1e32da	-0.038622715
124	0x3d09949f	0.033589
125	0x3e237b72	0.1596506
126	0xbdbb2671	-0.091381915
127	0xbc414574	-0.011796344
128	0x3df26393	0.118353985
129	0x3dc148df	0.09437727
130	0x3dd0a5d4	0.10187879
131	0xbdfe4a3e	-0.12416504
132	0xbdbef0d0	-0.09323275
133	0x3ae8a068	0.0017748
134	0x3deb0d21	0.114771135
135	0xbbd50386	-0.006500664
136	0x3e0d2772	0.13784578
137	0xbe0abd95	-0.13548882
138	0xbe528761	-0.20559455
139	0xbd8bddcd	-0.068294145
140	0x3e2d2f3a	0.16912547
141	0x3d8cf246	0.068821475
142	0xbe0a087a	-0.13479796
143	0x3dbe3fe4	0.0928953
144	0xbd7a9afb	-0.061182957
145	0x3dade3b0	0.084906936
146	0xbe232935	-0.15933688
147	0xbbfefff3	-0.0077819764
148	0x3dff7f62	0.12475468
149	0xbcb26eac	-0.021781288
150	0xbe0e29ad	-0.13883086
151	0x3e098fc6	0.13433751
152	0xbda7e5b7	-0.081981115
153	0xbe07f7b9	-0.13278092
154	0x3d24c324	0.040225163
155	0x3e30e47c	0.1727466
156	0x3dd3fcee	0.10350977
157	0x3d4537bc	0.048148856
158	0xba18d418	-0.0005829944
159	0xbdc63fe7	-0.09680157
160	0x3e2da80e	0.16958639
161	0x3dcdd105	0.10049633
162	0xbdd8ef34	-0.105924994
163	0xbd845071	-0.064606555
164	0xbcadd76d	-0.021220887
165	0x3ddb6c71	0.10714043
166	0xbd0f25d7	-0.034948196
167	0x3d9ca7f8	0.07649225
168	0x3d17d944	0.037072435
169	0xbcd0074e	-0.025394108
170	0xbda53b3e	-0.0806794
171	0xbd4a3bd5	-0.049373467
172	0xbd90a8fe	-0.07063483
173	0x3d2f988c	0.04287009
174	0x3cfde064	0.030990787
175	0x3e0fe942	0.14053825
176	0x3db78e69	0.089627095
177	0x3bb2ce1e	0.0054567
178	0xbe266765	-0.1625038
179	0xbdd10460	-0.102059126
180	0xbd97852c	-0.073984474
181	0xbdd40145	-0.10351805
182	0xbe2c12e8	-0.16804087
183	0x3e0d44fa	0.13795844
184	0x3d4bdacd	0.04976921
185	0xbd57e5e9	-0.052709494
186	0x3bcbfa85	0.0062249326
187	0x3dd45d91	0.10369409
188	0xbe224899	-0.15848006
189	0xbe20e996	-0.15714106
190	0xbd157274	-0.036486104
191	0xbd9fc399	-0.07800979
192	0xbd9daf6d	-0.076994754
193	0x3e244e12	0.16045406
194	0x3bf9b72d	0.007620713
195	0x3d7e9204	0.06215097
196	0x3b146920	0.0022645667
197	0xbda0e6b7	-0.07856505
198	0x3c6a29cb	0.014292191
199	0xbd089a2c	-0.033350155
200	0x3d0910a5	0.03346314
201	0xbdde716a	-0.10861476
202	0xbd52f6d3	-0.05150492
203	0x3cb8da3e	0.022565003
204	0xbd957716	-0.072981045
205	0xbc1331e1	-0.00898406
206	0xbc8f96bc	-0.01752793
207	0xbc3c4157	-0.011490188
208	0xbd833fe9	-0.06408674
209	0xbd50e7ff	-0.0510025
210	0xbe47a955	-0.19498189
211	0xbce8aef5	-0.028403739
212	0x3cb9717d	0.022637123
213	0x3da685cf	0.08130991
214	0x3e8fa478	0.28055167
215	0xbe3f348a	-0.18672386
216	0xbe05ddbd	-0.13072868
217	0xbe5aaf8c	-0.21356028
218	0xbdc1fd29	-0.094721146
219	0xbe874620	-0.2642069
220	0x3db727fe	0.08943175
221	0xbc8e44f8	-0.017366871
222	0xbdbb5c28	-0.09148437
223	0x3cfbf1b8	0.030754909
224	0x3e0f2c45	0.13981731
225	0xbd9d87c9	-0.076919146
226	0x3e0dfd04	0.13866049
227	0x3c9db83f	0.019252894
228	0x3da77111	0.081758626
229	0x3e1cbae2	0.15305665
230	0xbe93c3ca	-0.28860313
231	0xbe825cdd	-0.25461474
232	0xbb883fd9	-0.004158002
233	0xbe9e4e95	-0.30919328
234	0x3dcc2b14	0.09969154
235	0x3e9ce5f4	0.3064419
236	0x3d1b2f7a	0.037887074
237	0x3e1708ef	0.14749502
238	0xbe6ca1d0	-0.23108602
239	0x3d8c5061	0.068512686
240	0xbe2fbeaf	-0.17162584
241	0xbdc06f94	-0.09396282
242	0x3ced1cb8	0.028944358
243	0xbdb5643b	-0.08857008
244	0xbe3538ca	-0.17697445
245	0xbdbd2e4f	-0.09237348
246	0xbcfca8d1	-0.030842217
247	0xbe146633	-0.14492111
248	0x3c9838a4	0.018581696
249	0x3dbb5e6f	0.09148871
250	0xbe2d89e2	-0.1694713
251	0x3bb56240	0.005535394
252	0xbe427386	-0.18989381
253	0x3c8db6ca	0.017299075
254	0x3d954de3	0.07290246
255	0xbe0694e5	-0.13142736

onnx::MatMul_21 f4 [40, 4]
0	0xbdaf9a09	-0.08574302
1	0xbda19a1b	-0.078907214
2	0x3e3108c1	0.17288496
3	0x3da7e054	0.08197084
4	0x3cc60cfe	0.024176117
5	0xbdbe5cb7	-0.09295028
6	0xbd90603a	-0.07049604
7	0xbd6796be	-0.056540243
8	0xbdc008f5	-0.093767084
9	0x3dab0c92	0.08352007
10	0x3e2323dd	0.1593165
11	0xbd7953fd	-0.060871113
12	0xbd84032d	-0.06445918
13	0xbe082b2a	-0.13297716
14	0xbd695cec	-0.056973383
15	0xbd6789c8	-0.056527883
16	0xbbd399d9	-0.006457549
17	0xbd389fa1	-0.04507411
18	0xbdca1c14	-0.09868637
19	0x3b5e641b	0.003393418
20	0x3b919a8d	0.0044434727
21	0xbe224ff0	-0.15850806
22	0xbd4c2661	-0.04984129
23	0xbe0105b7	-0.12599836
24	0xbdad6344	-0.08466199
25	0xba6436ca	-0.0008705674
26	0x3dd6c374	0.104864985
27	0xbde20308	-0.110357344
28	0x3d870e54	0.0659453
29	0xbd44524a	-0.04793004
30	0x3e0ce610	0.13759637
31	0xbded2e5f	-0.1158111
32	0x3c8d5ab7	0.01725517
33	0x3c4b96f4	0.012426127
34	0x3cf858ef	0.030315844
35	0xbdc16cd9	-0.09444589
36	0x3d201494	0.039082125
37	0xbdb19197	-0.08670347
38	0x3dfd366d	0.123638965
39	0xbd2fb847	-0.04290035
40	0xbce101ab	-0.027466616
41	0xbdd51d8c	-0.10406026
42	0x3dc92443	0.098213695
43	0xbe1b6936	-0.15176854
44	0x3c00c1fd	0.00785875
45	0xbe08451a	-0.1330761
46	0x3dc4ec0d	0.096153356
47	0x3db5239f	0.08844685
48	0xbddc23d1	-0.10749019
49	0xbe68f628	-0.22750151
50	0x3c1e310b	0.009655247
51	0xbda592cb	-0.08084639
52	0x3e257003	0.1615601
53	0x3d8dceee	0.06924234
54	0xbda5fea6	-0.08105211
55	0xbe030f4c	-0.12798804
56	0xbcf63cc9	-0.030058281
57	0xbe81eb93	-0.2537504
58	0x3d1c2332	0.038119502
59	0x3da6b764	0.08140448
60	0x3d7b6ced	0.061383177
61	0x3dcd6d01	0.100305565
62	0xbda9a9e8	-0.0828436
63	0xbc973df2	-0.018462155
64	0xbccdcf14	-0.025123157
65	0xbd48e5d1	-0.049047295
66	0x3d80e554	0.06293741
67	0x3d174487	0.036930587
68	0x3e5040bb	0.20337193
69	0xbde97454	-0.11399141
70	0xbe3f94b0	-0.18709064
71	0xbd34523b	-0.044023734
72	0x3e00bf8b	0.12573068
73	0xbd82001e	-0.063476786
74	0xbd164331	-0.036685172
75	0xbe35d492	-0.1775687
76	0xbd2210b0	-0.039566696
77	0x3dfdf9bf	0.12401151
78	0x3add80f0	0.0016899388
79	0xbdbea0d3	-0.093080185
80	0x3db5e6ec	0.088819355
81	0xbe03143f	-0.12800692
82	0xbd8cc592	-0.06873621
83	0xbd3f9494	-0.046772555
84	0x3d953a46	0.072865054
85	0xbdb38345	-0.08765272
86	0xbe34112e	-0.17584679
87	0x3dd158bb	0.10222002
88	0x3d82ee6e	0.06393133
89	0x3d3dbdb1	0.046323482
90	0x3d0d5f33	0.034514617
91	0x3da998a3	0.08281066
92	0xbda9fe6c	-0.0830048
93	0x3ddab1db	0.106784545
94	0x3d348dcd	0.044080544
95	0x3cbc2eb3	0.022971487
96	0xbd8bb07e	-0.068207726
97	0x3d17b013	0.03703315
98	0x3dae5bdb	0.08513614
99	0x3d423b4a	0.047419824
100	0x3dc56c08	0.09639746
101	0xbdfc8ce2	-0.12331559
102	0xbdef4889	-0.11683757
103	0xbe4ee080	-0.20202827
104	0x3ded93c8	0.11600453
105	0xbdd72181	-0.10504437
106	0x3c0b5243	0.008503499
107	0x3dbdccd9	0.09267587
108	0x3d5a6e4b	0.05332784
109	0x3d375ba5	0.044765133
110	0x3d90d8bb	0.07072588
111	0x3d4aaf38	0.049483508
112	0x3cb753ae	0.022378769
113	0xbd7ca6be	-0.061682455
114	0xbe910d9e	-0.28330702
115	0xbd99cb64	-0.07509497
116	0x3d87c37f	0.06629085
117	0xbdb79c79	-0.08965392
118	0x3d9ade6b	0.07561954
119	0x3df10b88	0.117697775
120	0xbd14f1be	-0.036363356
121	0x3e0582b6	0.13038144
122	0x3db17f07	0.08666807
123	0xbe18a8bc	-0.14908117
124	0xbdd6016e	-0.104494914
125	0x3e363d6b	0.17796867
126	0xbd264d79	-0.040601227
127	0xbe087be0	-0.13328505
128	0x3dfae0ab	0.12249883
129	0xbce60902	-0.028080467
130	0xbe2821d3	-0.16419153
131	0x3b0aa42a	0.0021154978
132	0x3d82e428	0.063911736
133	0x3d98ec79	0.074669786
134	0x3ce988d0	0.02850762
135	0x3b766513	0.0037596866
136	0xbb3d8f04	-0.0028924355
137	0xbd910ac2	-0.0708213
138	0x3e12cff0	0.14337134
139	0xbcfe409b	-0.031036666
140	0xbe822a16	-0.25422734
141	0xbe118c5d	-0.142137
142	0x3dbbbd23	0.09166934
143	0x3d96e7d7	0.07368439
144	0xbc81d279	-0.015847431
145	0x3df4583b	0.11930891
146	0x3d08cf4e	0.033400826
147	0xbd481177	-0.04884478
148	0x3dca40b4	0.098756224
149	0x3c81c0b9	0.015838968
150	0x3e23f428	0.16011107
151	0x3d1e1dd0	0.03860265
152	0xbe3c9d88	-0.18419468
153	0xbe298588	-0.16554844
154	0x3d933c28	0.07189208
155	0xbd7e2e85	-0.062056083
156	0xbd103cf1	-0.03521437
157	0x3d143f2c	0.036193058
158	0xbd28e335	-0.041232307
159	0xbe0fc501	-0.14039995
